…
snapshot_prefix: "cifar10_full"
solver_mode: CPU
net: "cifar10_full_train_test.prototxt"
I0110 18:56:45.599578 251321 caffe.cpp:116] Use CPU.
I0110 18:56:45.599810 251321 caffe.cpp:120] Starting Optimization
I0110 18:56:45.600317 303806 net.cpp:49] Initializing net from parameters: 
name: "CIFAR10_full"
state {
  phase: TRAIN
}
layer {
  name: "cifar"
  type: "Data"
  top: "data"
  top: "label"
  include {
    phase: TRAIN
  }
  transform_param {
    mean_file: "mean.binaryproto"
  }
  data_param {
    source: "cifar10_train_lmdb"
    batch_size: 128
    backend: LMDB
  }
}
layer {
  name: "conv1"
  type: "Convolution"
  bottom: "data"
  top: "conv1"
  param {
    lr_mult: 1
  }
  param {
    lr_mult: 2
  }
  convolution_param {
    num_output: 32
    pad: 2
    kernel_size: 5
    stride: 1
    weight_filler {
      type: "gaussian"
      std: 0.0001
    }
    bias_filler {
      type: "constant"
    }
  }
}
layer {
  name: "pool1"
  type: "Pooling"
  bottom: "conv1"
  top: "pool1"
  pooling_param {
    pool: MAX
    kernel_size: 3
    stride: 2
  }
}
layer {
  name: "relu1"
  type: "ReLU"
  bottom: "pool1"
  top: "pool1"
}
layer {
  name: "norm1"
  type: "LRN"
  bottom: "pool1"
  top: "norm1"
  lrn_param {
    local_size: 3
    alpha: 5e-05
    beta: 0.75
    norm_region: WITHIN_CHANNEL
  }
}
layer {
  name: "conv2"
  type: "Convolution"
  bottom: "norm1"
  top: "conv2"
  param {
    lr_mult: 1
  }
  param {
    lr_mult: 2
  }
  convolution_param {
    num_output: 32
    pad: 2
    kernel_size: 5
    stride: 1
    weight_filler {
      type: "gaussian"
      std: 0.01
    }
    bias_filler {
      type: "constant"
    }
  }
}
layer {
  name: "relu2"
  type: "ReLU"
  bottom: "conv2"
  top: "conv2"
}
layer {
  name: "pool2"
  type: "Pooling"
  bottom: "conv2"
  top: "pool2"
  pooling_param {
    pool: AVE
    kernel_size: 3
    stride: 2
  }
}
layer {
  name: "norm2"
  type: "LRN"
  bottom: "pool2"
  top: "norm2"
  lrn_param {
    local_size: 3
    alpha: 5e-05
    beta: 0.75
    norm_region: WITHIN_CHANNEL
  }
}
layer {
  name: "conv3"
  type: "Convolution"
  bottom: "norm2"
  top: "conv3"
  convolution_param {
    num_output: 64
    pad: 2
    kernel_size: 5
    stride: 1
    weight_filler {
      type: "gaussian"
      std: 0.01
    }
    bias_filler {
      type: "constant"
    }
  }
}
layer {
  name: "relu3"
  type: "ReLU"
  bottom: "conv3"
  top: "conv3"
}
layer {
  name: "pool3"
  type: "Pooling"
  bottom: "conv3"
  top: "pool3"
  pooling_param {
    pool: AVE
    kernel_size: 3
    stride: 2
  }
}
layer {
  name: "ip1"
  type: "InnerProduct"
  bottom: "pool3"
  top: "ip1"
  param {
    lr_mult: 1
    decay_mult: 250
  }
  param {
    lr_mult: 2
    decay_mult: 0
  }
  inner_product_param {
    num_output: 10
    weight_filler {
      type: "gaussian"
      std: 0.01
    }
    bias_filler {
      type: "constant"
    }
  }
}
layer {
  name: "loss"
  type: "SoftmaxWithLoss"
  bottom: "ip1"
  bottom: "label"
  top: "loss"
}
I0110 18:56:45.600344 251375 net.cpp:271] The NetState phase (0) differed from the phase (1) specified by a rule in layer cifar
I0110 18:56:45.600374 251375 net.cpp:271] The NetState phase (0) differed from the phase (1) specified by a rule in layer accuracy
I0110 18:56:45.600482 251279 solver.cpp:74] Creating training net from net file: cifar10_full_train_test.prototxt
I0110 18:56:45.597688 251415 caffe.cpp:116] Use CPU.
I0110 18:56:45.600381 251375 net.cpp:49] Initializing net from parameters: 
name: "CIFAR10_full"
state {
  phase: TRAIN
}
layer {
  name: "cifar"
  type: "Data"
  top: "data"
  top: "label"
  include {
    phase: TRAIN
  }
  transform_param {
    mean_file: "mean.binaryproto"
  }
  data_param {
    source: "cifar10_train_lmdb"
    batch_size: 128
    backend: LMDB
  }
}
layer {
  name: "conv1"
  type: "Convolution"
  bottom: "data"
  top: "conv1"
  param {
    lr_mult: 1
  }
  param {
    lr_mult: 2
  }
  convolution_param {
    num_output: 32
    pad: 2
    kernel_size: 5
    stride: 1
    weight_filler {
      type: "gaussian"
      std: 0.0001
    }
    bias_filler {
      type: "constant"
    }
  }
}
layer {
  name: "pool1"
  type: "Pooling"
  bottom: "conv1"
  top: "pool1"
  pooling_param {
    pool: MAX
    kernel_size: 3
    stride: 2
  }
}
layer {
  name: "relu1"
  type: "ReLU"
  bottom: "pool1"
  top: "pool1"
}
layer {
  name: "norm1"
  type: "LRN"
  bottom: "pool1"
  top: "norm1"
  lrn_param {
    local_size: 3
    alpha: 5e-05
    beta: 0.75
    norm_region: WITHIN_CHANNEL
  }
}
layer {
  name: "conv2"
  type: "Convolution"
  bottom: "norm1"
  top: "conv2"
  param {
    lr_mult: 1
  }
  param {
    lr_mult: 2
  }
  convolution_param {
    num_output: 32
    pad: 2
    kernel_size: 5
    stride: 1
    weight_filler {
      type: "gaussian"
      std: 0.01
    }
    bias_filler {
      type: "constant"
    }
  }
}
layer {
  name: "relu2"
  type: "ReLU"
  bottom: "conv2"
  top: "conv2"
}
layer {
  name: "pool2"
  type: "Pooling"
  bottom: "conv2"
  top: "pool2"
  pooling_param {
    pool: AVE
    kernel_size: 3
    stride: 2
  }
}
layer {
  name: "norm2"
  type: "LRN"
  bottom: "pool2"
  top: "norm2"
  lrn_param {
    local_size: 3
    alpha: 5e-05
    beta: 0.75
    norm_region: WITHIN_CHANNEL
  }
}
layer {
  name: "conv3"
  type: "Convolution"
  bottom: "norm2"
  top: "conv3"
  convolution_param {
    num_output: 64
    pad: 2
    kernel_size: 5
    stride: 1
    weight_filler {
      type: "gaussian"
      std: 0.01
    }
    bias_filler {
      type: "constant"
    }
  }
}
layer {
  name: "relu3"
  type: "ReLU"
  bottom: "conv3"
  top: "conv3"
}
layer {
  name: "pool3"
  type: "Pooling"
  bottom: "conv3"
  top: "pool3"
  pooling_param {
    pool: AVE
    kernel_size: 3
    stride: 2
  }
}
layer {
  name: "ip1"
  type: "InnerProduct"
  bottom: "pool3"
  top: "ip1"
  param {
    lr_mult: 1
    decay_mult: 250
  }
  param {
    lr_mult: 2
    decay_mult: 0
  }
  inner_product_param {
    num_output: 10
    weight_filler {
      type: "gaussian"
      std: 0.01
    }
    bias_filler {
      type: "constant"
    }
  }
}
layer {
  name: "loss"
  type: "SoftmaxWithLoss"
  bottom: "ip1"
  bottom: "label"
  top: "loss"
}
I0110 18:56:45.597936 251415 caffe.cpp:120] Starting Optimization
I0110 18:56:45.599562 251273 caffe.cpp:116] Use CPU.
I0110 18:56:45.599812 251273 caffe.cpp:120] Starting Optimization
I0110 18:56:45.600495 303806 layer_factory.hpp:74] Creating layer cifar
I0110 18:56:45.599824 251321 solver.cpp:36] Initializing solver from parameters: 
test_iter: 128
test_interval: 1000
base_lr: 0.001
…
I0110 18:56:45.598072 251415 solver.cpp:74] Creating training net from net file: cifar10_full_train_test.prototxt
I0110 18:56:45.600546 303806 net.cpp:120] Setting up cifar
I0110 18:56:45.600622 251375 net.cpp:352] cifar -> label
I0110 18:56:45.600486 302873 net.cpp:49] Initializing net from parameters: 
name: "CIFAR10_full"
state {
  phase: TRAIN
}
layer {
  name: "cifar"
  type: "Data"
  top: "data"
  top: "label"
  include {
    phase: TRAIN
  }
  transform_param {
    mean_file: "mean.binaryproto"
  }
  data_param {
    source: "cifar10_train_lmdb"
    batch_size: 128
    backend: LMDB
  }
}
layer {
  name: "conv1"
  type: "Convolution"
  bottom: "data"
  top: "conv1"
  param {
    lr_mult: 1
  }
  param {
    lr_mult: 2
  }
  convolution_param {
    num_output: 32
    pad: 2
    kernel_size: 5
    stride: 1
    weight_filler {
      type: "gaussian"
      std: 0.0001
    }
    bias_filler {
      type: "constant"
    }
  }
}
layer {
  name: "pool1"
  type: "Pooling"
  bottom: "conv1"
  top: "pool1"
  pooling_param {
    pool: MAX
    kernel_size: 3
    stride: 2
  }
}
layer {
  name: "relu1"
  type: "ReLU"
  bottom: "pool1"
  top: "pool1"
}
layer {
  name: "norm1"
  type: "LRN"
  bottom: "pool1"
  top: "norm1"
  lrn_param {
    local_size: 3
    alpha: 5e-05
    beta: 0.75
    norm_region: WITHIN_CHANNEL
  }
}
layer {
  name: "conv2"
  type: "Convolution"
  bottom: "norm1"
  top: "conv2"
  param {
    lr_mult: 1
  }
  param {
    lr_mult: 2
  }
  convolution_param {
    num_output: 32
    pad: 2
    kernel_size: 5
    stride: 1
    weight_filler {
      type: "gaussian"
      std: 0.01
    }
    bias_filler {
      type: "constant"
    }
  }
}
layer {
  name: "relu2"
  type: "ReLU"
  bottom: "conv2"
  top: "conv2"
}
layer {
  name: "pool2"
  type: "Pooling"
  bottom: "conv2"
  top: "pool2"
  pooling_param {
    pool: AVE
    kernel_size: 3
    stride: 2
  }
}
layer {
  name: "norm2"
  type: "LRN"
  bottom: "pool2"
  top: "norm2"
  lrn_param {
    local_size: 3
    alpha: 5e-05
    beta: 0.75
    norm_region: WITHIN_CHANNEL
  }
}
layer {
  name: "conv3"
  type: "Convolution"
  bottom: "norm2"
  top: "conv3"
  convolution_param {
    num_output: 64
    pad: 2
    kernel_size: 5
    stride: 1
    weight_filler {
      type: "gaussian"
      std: 0.01
    }
    bias_filler {
      type: "constant"
    }
  }
}
layer {
  name: "relu3"
  type: "ReLU"
  bottom: "conv3"
  top: "conv3"
}
layer {
  name: "pool3"
  type: "Pooling"
  bottom: "conv3"
  top: "pool3"
  pooling_param {
    pool: AVE
    kernel_size: 3
    stride: 2
  }
}
layer {
  name: "ip1"
  type: "InnerProduct"
  bottom: "pool3"
  top: "ip1"
  param {
    lr_mult: 1
    decay_mult: 250
  }
  param {
    lr_mult: 2
    decay_mult: 0
  }
  inner_product_param {
    num_output: 10
    weight_filler {
      type: "gaussian"
      std: 0.01
    }
    bias_filler {
      type: "constant"
    }
  }
}
layer {
  name: "loss"
  type: "SoftmaxWithLoss"
  bottom: "ip1"
  bottom: "label"
  top: "loss"
}
I0110 18:56:45.600296 251003 caffe.cpp:116] Use CPU.
I0110 18:56:45.600522 251003 caffe.cpp:120] Starting Optimization
I0110 18:56:45.600632 251375 net.cpp:120] Setting up cifar
I0110 18:56:45.600533 251003 solver.cpp:36] Initializing solver from parameters: 
test_iter: 128
test_interval: 1000
base_lr: 0.001
display: 200
max_iter: 60000
lr_policy: "fixed"
momentum: 0.9
weight_decay: 0.004
…
I0110 18:56:45.600414 251203 net.cpp:271] The NetState phase (0) differed from the phase (1) specified by a rule in layer cifar
I0110 18:56:45.600433 251203 net.cpp:271] The NetState phase (0) differed from the phase (1) specified by a rule in layer accuracy
I0110 18:56:45.600440 251203 net.cpp:49] Initializing net from parameters: 
name: "CIFAR10_full"
state {
  phase: TRAIN
}
layer {
  name: "cifar"
  type: "Data"
  top: "data"
  top: "label"
  include {
    phase: TRAIN
  }
  transform_param {
    mean_file: "mean.binaryproto"
  }
  data_param {
    source: "cifar10_train_lmdb"
    batch_size: 128
    backend: LMDB
  }
}
layer {
  name: "conv1"
  type: "Convolution"
  bottom: "data"
  top: "conv1"
  param {
    lr_mult: 1
  }
  param {
    lr_mult: 2
  }
  convolution_param {
    num_output: 32
    pad: 2
    kernel_size: 5
    stride: 1
    weight_filler {
      type: "gaussian"
      std: 0.0001
    }
    bias_filler {
      type: "constant"
    }
  }
}
layer {
  name: "pool1"
  type: "Pooling"
  bottom: "conv1"
  top: "pool1"
  pooling_param {
    pool: MAX
    kernel_size: 3
    stride: 2
  }
}
layer {
  name: "relu1"
  type: "ReLU"
  bottom: "pool1"
  top: "pool1"
}
layer {
  name: "norm1"
  type: "LRN"
  bottom: "pool1"
  top: "norm1"
  lrn_param {
    local_size: 3
    alpha: 5e-05
    beta: 0.75
    norm_region: WITHIN_CHANNEL
  }
}
layer {
  name: "conv2"
  type: "Convolution"
  bottom: "norm1"
  top: "conv2"
  param {
    lr_mult: 1
  }
  param {
    lr_mult: 2
  }
  convolution_param {
    num_output: 32
    pad: 2
    kernel_size: 5
    stride: 1
    weight_filler {
      type: "gaussian"
      std: 0.01
    }
    bias_filler {
      type: "constant"
    }
  }
}
layer {
  name: "relu2"
  type: "ReLU"
  bottom: "conv2"
  top: "conv2"
}
layer {
  name: "pool2"
  type: "Pooling"
  bottom: "conv2"
  top: "pool2"
  pooling_param {
    pool: AVE
    kernel_size: 3
    stride: 2
  }
}
layer {
  name: "norm2"
  type: "LRN"
  bottom: "pool2"
  top: "norm2"
  lrn_param {
    local_size: 3
    alpha: 5e-05
    beta: 0.75
    norm_region: WITHIN_CHANNEL
  }
}
layer {
  name: "conv3"
  type: "Convolution"
  bottom: "norm2"
  top: "conv3"
  convolution_param {
    num_output: 64
    pad: 2
    kernel_size: 5
    stride: 1
    weight_filler {
      type: "gaussian"
      std: 0.01
    }
    bias_filler {
      type: "constant"
    }
  }
}
layer {
  name: "relu3"
  type: "ReLU"
  bottom: "conv3"
  top: "conv3"
}
layer {
  name: "pool3"
  type: "Pooling"
  bottom: "conv3"
  top: "pool3"
  pooling_param {
    pool: AVE
    kernel_size: 3
    stride: 2
  }
}
layer {
  name: "ip1"
  type: "InnerProduct"
  bottom: "pool3"
  top: "ip1"
  param {
    lr_mult: 1
    decay_mult: 250
  }
  param {
    lr_mult: 2
    decay_mult: 0
  }
  inner_product_param {
    num_output: 10
    weight_filler {
      type: "gaussian"
      std: 0.01
    }
    bias_filler {
      type: "constant"
    }
  }
}
layer {
  name: "loss"
  type: "SoftmaxWithLoss"
  bottom: "ip1"
  bottom: "label"
  top: "loss"
}
I0110 18:56:45.600764 251529 net.cpp:271] The NetState phase (0) differed from the phase (1) specified by a rule in layer cifar
I0110 18:56:45.600783 251529 net.cpp:271] The NetState phase (0) differed from the phase (1) specified by a rule in layer accuracy
I0110 18:56:45.600550 251542 net.cpp:271] The NetState phase (0) differed from the phase (1) specified by a rule in layer cifar
I0110 18:56:45.600567 251542 net.cpp:271] The NetState phase (0) differed from the phase (1) specified by a rule in layer accuracy
I0110 18:56:45.600752 251422 net.cpp:271] The NetState phase (0) differed from the phase (1) specified by a rule in layer cifar
I0110 18:56:45.600774 251422 net.cpp:271] The NetState phase (0) differed from the phase (1) specified by a rule in layer accuracy
I0110 18:56:45.600790 251529 net.cpp:49] Initializing net from parameters: 
name: "CIFAR10_full"
state {
  phase: TRAIN
}
layer {
  name: "cifar"
  type: "Data"
  top: "data"
  top: "label"
  include {
    phase: TRAIN
  }
  transform_param {
    mean_file: "mean.binaryproto"
  }
  data_param {
    source: "cifar10_train_lmdb"
    batch_size: 128
    backend: LMDB
  }
}
layer {
  name: "conv1"
  type: "Convolution"
  bottom: "data"
  top: "conv1"
  param {
    lr_mult: 1
  }
  param {
    lr_mult: 2
  }
  convolution_param {
    num_output: 32
    pad: 2
    kernel_size: 5
    stride: 1
    weight_filler {
      type: "gaussian"
      std: 0.0001
    }
    bias_filler {
      type: "constant"
    }
  }
}
layer {
  name: "pool1"
  type: "Pooling"
  bottom: "conv1"
  top: "pool1"
  pooling_param {
    pool: MAX
    kernel_size: 3
    stride: 2
  }
}
layer {
  name: "relu1"
  type: "ReLU"
  bottom: "pool1"
  top: "pool1"
}
layer {
  name: "norm1"
  type: "LRN"
  bottom: "pool1"
  top: "norm1"
  lrn_param {
    local_size: 3
    alpha: 5e-05
    beta: 0.75
    norm_region: WITHIN_CHANNEL
  }
}
layer {
  name: "conv2"
  type: "Convolution"
  bottom: "norm1"
  top: "conv2"
  param {
    lr_mult: 1
  }
  param {
    lr_mult: 2
  }
  convolution_param {
    num_output: 32
    pad: 2
    kernel_size: 5
    stride: 1
    weight_filler {
      type: "gaussian"
      std: 0.01
    }
    bias_filler {
      type: "constant"
    }
  }
}
layer {
  name: "relu2"
  type: "ReLU"
  bottom: "conv2"
  top: "conv2"
}
layer {
  name: "pool2"
  type: "Pooling"
  bottom: "conv2"
  top: "pool2"
  pooling_param {
    pool: AVE
    kernel_size: 3
    stride: 2
  }
}
layer {
  name: "norm2"
  type: "LRN"
  bottom: "pool2"
  top: "norm2"
  lrn_param {
    local_size: 3
    alpha: 5e-05
    beta: 0.75
    norm_region: WITHIN_CHANNEL
  }
}
layer {
  name: "conv3"
  type: "Convolution"
  bottom: "norm2"
  top: "conv3"
  convolution_param {
    num_output: 64
    pad: 2
    kernel_size: 5
    stride: 1
    weight_filler {
      type: "gaussian"
      std: 0.01
    }
    bias_filler {
      type: "constant"
    }
  }
}
layer {
  name: "relu3"
  type: "ReLU"
  bottom: "conv3"
  top: "conv3"
}
layer {
  name: "pool3"
  type: "Pooling"
  bottom: "conv3"
  top: "pool3"
  pooling_param {
    pool: AVE
    kernel_size: 3
    stride: 2
  }
}
layer {
  name: "ip1"
  type: "InnerProduct"
  bottom: "pool3"
  top: "ip1"
  param {
    lr_mult: 1
    decay_mult: 250
  }
  param {
    lr_mult: 2
    decay_mult: 0
  }
  inner_product_param {
    num_output: 10
    weight_filler {
      type: "gaussian"
      std: 0.01
    }
    bias_filler {
      type: "constant"
    }
  }
}
layer {
  name: "loss"
  type: "SoftmaxWithLoss"
  bottom: "ip1"
  bottom: "label"
  top: "loss"
}
I0110 18:56:45.600574 251542 net.cpp:49] Initializing net from parameters: 
name: "CIFAR10_full"
state {
  phase: TRAIN
}
layer {
  name: "cifar"
  type: "Data"
  top: "data"
  top: "label"
  include {
    phase: TRAIN
  }
  transform_param {
    mean_file: "mean.binaryproto"
  }
  data_param {
    source: "cifar10_train_lmdb"
    batch_size: 128
    backend: LMDB
  }
}
layer {
  name: "conv1"
  type: "Convolution"
  bottom: "data"
  top: "conv1"
  param {
    lr_mult: 1
  }
  param {
    lr_mult: 2
  }
  convolution_param {
    num_output: 32
    pad: 2
    kernel_size: 5
    stride: 1
    weight_filler {
      type: "gaussian"
      std: 0.0001
    }
    bias_filler {
      type: "constant"
    }
  }
}
layer {
  name: "pool1"
  type: "Pooling"
  bottom: "conv1"
  top: "pool1"
  pooling_param {
    pool: MAX
    kernel_size: 3
    stride: 2
  }
}
layer {
  name: "relu1"
  type: "ReLU"
  bottom: "pool1"
  top: "pool1"
}
layer {
  name: "norm1"
  type: "LRN"
  bottom: "pool1"
  top: "norm1"
  lrn_param {
    local_size: 3
    alpha: 5e-05
    beta: 0.75
    norm_region: WITHIN_CHANNEL
  }
}
layer {
  name: "conv2"
  type: "Convolution"
  bottom: "norm1"
  top: "conv2"
  param {
    lr_mult: 1
  }
  param {
    lr_mult: 2
  }
  convolution_param {
    num_output: 32
    pad: 2
    kernel_size: 5
    stride: 1
    weight_filler {
      type: "gaussian"
      std: 0.01
    }
    bias_filler {
      type: "constant"
    }
  }
}
layer {
  name: "relu2"
  type: "ReLU"
  bottom: "conv2"
  top: "conv2"
}
layer {
  name: "pool2"
  type: "Pooling"
  bottom: "conv2"
  top: "pool2"
  pooling_param {
    pool: AVE
    kernel_size: 3
    stride: 2
  }
}
layer {
  name: "norm2"
  type: "LRN"
  bottom: "pool2"
  top: "norm2"
  lrn_param {
    local_size: 3
    alpha: 5e-05
    beta: 0.75
    norm_region: WITHIN_CHANNEL
  }
}
layer {
  name: "conv3"
  type: "Convolution"
  bottom: "norm2"
  top: "conv3"
  convolution_param {
    num_output: 64
    pad: 2
    kernel_size: 5
    stride: 1
    weight_filler {
      type: "gaussian"
      std: 0.01
    }
    bias_filler {
      type: "constant"
    }
  }
}
layer {
  name: "relu3"
  type: "ReLU"
  bottom: "conv3"
  top: "conv3"
}
layer {
  name: "pool3"
  type: "Pooling"
  bottom: "conv3"
  top: "pool3"
  pooling_param {
    pool: AVE
    kernel_size: 3
    stride: 2
  }
}
layer {
  name: "ip1"
  type: "InnerProduct"
  bottom: "pool3"
  top: "ip1"
  param {
    lr_mult: 1
    decay_mult: 250
  }
  param {
    lr_mult: 2
    decay_mult: 0
  }
  inner_product_param {
    num_output: 10
    weight_filler {
      type: "gaussian"
      std: 0.01
    }
    bias_filler {
      type: "constant"
    }
  }
}
layer {
  name: "loss"
  type: "SoftmaxWithLoss"
  bottom: "ip1"
  bottom: "label"
  top: "loss"
}
I0110 18:56:45.600618 251203 layer_factory.hpp:74] Creating layer cifar
I0110 18:56:45.600975 251529 layer_factory.hpp:74] Creating layer cifar
I0110 18:56:45.600755 251542 layer_factory.hpp:74] Creating layer cifar
I0110 18:56:45.600780 251422 net.cpp:49] Initializing net from parameters: 
name: "CIFAR10_full"
state {
  phase: TRAIN
}
layer {
  name: "cifar"
  type: "Data"
  top: "data"
  top: "label"
  include {
    phase: TRAIN
  }
  transform_param {
    mean_file: "mean.binaryproto"
  }
  data_param {
    source: "cifar10_train_lmdb"
    batch_size: 128
    backend: LMDB
  }
}
layer {
  name: "conv1"
  type: "Convolution"
  bottom: "data"
  top: "conv1"
  param {
    lr_mult: 1
  }
  param {
    lr_mult: 2
  }
  convolution_param {
    num_output: 32
    pad: 2
    kernel_size: 5
    stride: 1
    weight_filler {
      type: "gaussian"
      std: 0.0001
    }
    bias_filler {
      type: "constant"
    }
  }
}
layer {
  name: "pool1"
  type: "Pooling"
  bottom: "conv1"
  top: "pool1"
  pooling_param {
    pool: MAX
    kernel_size: 3
    stride: 2
  }
}
layer {
  name: "relu1"
  type: "ReLU"
  bottom: "pool1"
  top: "pool1"
}
layer {
  name: "norm1"
  type: "LRN"
  bottom: "pool1"
  top: "norm1"
  lrn_param {
    local_size: 3
    alpha: 5e-05
    beta: 0.75
    norm_region: WITHIN_CHANNEL
  }
}
layer {
  name: "conv2"
  type: "Convolution"
  bottom: "norm1"
  top: "conv2"
  param {
    lr_mult: 1
  }
  param {
    lr_mult: 2
  }
  convolution_param {
    num_output: 32
    pad: 2
    kernel_size: 5
    stride: 1
    weight_filler {
      type: "gaussian"
      std: 0.01
    }
    bias_filler {
      type: "constant"
    }
  }
}
layer {
  name: "relu2"
  type: "ReLU"
  bottom: "conv2"
  top: "conv2"
}
layer {
  name: "pool2"
  type: "Pooling"
  bottom: "conv2"
  top: "pool2"
  pooling_param {
    pool: AVE
    kernel_size: 3
    stride: 2
  }
}
layer {
  name: "norm2"
  type: "LRN"
  bottom: "pool2"
  top: "norm2"
  lrn_param {
    local_size: 3
    alpha: 5e-05
    beta: 0.75
    norm_region: WITHIN_CHANNEL
  }
}
layer {
  name: "conv3"
  type: "Convolution"
  bottom: "norm2"
  top: "conv3"
  convolution_param {
    num_output: 64
    pad: 2
    kernel_size: 5
    stride: 1
    weight_filler {
      type: "gaussian"
      std: 0.01
    }
    bias_filler {
      type: "constant"
    }
  }
}
layer {
  name: "relu3"
  type: "ReLU"
  bottom: "conv3"
  top: "conv3"
}
layer {
  name: "pool3"
  type: "Pooling"
  bottom: "conv3"
  top: "pool3"
  pooling_param {
    pool: AVE
    kernel_size: 3
    stride: 2
  }
}
layer {
  name: "ip1"
  type: "InnerProduct"
  bottom: "pool3"
  top: "ip1"
  param {
    lr_mult: 1
    decay_mult: 250
  }
  param {
    lr_mult: 2
    decay_mult: 0
  }
  inner_product_param {
    num_output: 10
    weight_filler {
      type: "gaussian"
      std: 0.01
    }
    bias_filler {
      type: "constant"
    }
  }
}
layer {
  name: "loss"
  type: "SoftmaxWithLoss"
  bottom: "ip1"
  bottom: "label"
  top: "loss"
}
I0110 18:56:45.600639 251203 net.cpp:91] Creating Layer cifar
I0110 18:56:45.600994 251529 net.cpp:91] Creating Layer cifar
I0110 18:56:45.600999 251529 net.cpp:352] cifar -> data
I0110 18:56:45.600775 251542 net.cpp:91] Creating Layer cifar
I0110 18:56:45.600780 251542 net.cpp:352] cifar -> data
I0110 18:56:45.600945 251422 layer_factory.hpp:74] Creating layer cifar
I0110 18:56:45.600646 251203 net.cpp:352] cifar -> data
…
I0110 18:56:45.601303 251279 net.cpp:352] cifar -> data
I0110 18:56:45.598662 251415 net.cpp:271] The NetState phase (0) differed from the phase (1) specified by a rule in layer accuracy
I0110 18:56:45.600549 251321 net.cpp:49] Initializing net from parameters: 
name: "CIFAR10_full"
state {
  phase: TRAIN
}
layer {
  name: "cifar"
  type: "Data"
  top: "data"
  top: "label"
  include {
    phase: TRAIN
  }
  transform_param {
    mean_file: "mean.binaryproto"
  }
  data_param {
    source: "cifar10_train_lmdb"
    batch_size: 128
    backend: LMDB
  }
}
layer {
  name: "conv1"
  type: "Convolution"
  bottom: "data"
  top: "conv1"
  param {
    lr_mult: 1
  }
  param {
    lr_mult: 2
  }
  convolution_param {
    num_output: 32
    pad: 2
    kernel_size: 5
    stride: 1
    weight_filler {
      type: "gaussian"
      std: 0.0001
    }
    bias_filler {
      type: "constant"
    }
  }
}
layer {
  name: "pool1"
  type: "Pooling"
  bottom: "conv1"
  top: "pool1"
  pooling_param {
    pool: MAX
    kernel_size: 3
    stride: 2
  }
}
layer {
  name: "relu1"
  type: "ReLU"
  bottom: "pool1"
  top: "pool1"
}
layer {
  name: "norm1"
  type: "LRN"
  bottom: "pool1"
  top: "norm1"
  lrn_param {
    local_size: 3
    alpha: 5e-05
    beta: 0.75
    norm_region: WITHIN_CHANNEL
  }
}
layer {
  name: "conv2"
  type: "Convolution"
  bottom: "norm1"
  top: "conv2"
  param {
    lr_mult: 1
  }
  param {
    lr_mult: 2
  }
  convolution_param {
    num_output: 32
    pad: 2
    kernel_size: 5
    stride: 1
    weight_filler {
      type: "gaussian"
      std: 0.01
    }
    bias_filler {
      type: "constant"
    }
  }
}
layer {
  name: "relu2"
  type: "ReLU"
  bottom: "conv2"
  top: "conv2"
}
layer {
  name: "pool2"
  type: "Pooling"
  bottom: "conv2"
  top: "pool2"
  pooling_param {
    pool: AVE
    kernel_size: 3
    stride: 2
  }
}
layer {
  name: "norm2"
  type: "LRN"
  bottom: "pool2"
  top: "norm2"
  lrn_param {
    local_size: 3
    alpha: 5e-05
    beta: 0.75
    norm_region: WITHIN_CHANNEL
  }
}
layer {
  name: "conv3"
  type: "Convolution"
  bottom: "norm2"
  top: "conv3"
  convolution_param {
    num_output: 64
    pad: 2
    kernel_size: 5
    stride: 1
    weight_filler {
      type: "gaussian"
      std: 0.01
    }
    bias_filler {
      type: "constant"
    }
  }
}
layer {
  name: "relu3"
  type: "ReLU"
  bottom: "conv3"
  top: "conv3"
}
layer {
  name: "pool3"
  type: "Pooling"
  bottom: "conv3"
  top: "pool3"
  pooling_param {
    pool: AVE
    kernel_size: 3
    stride: 2
  }
}
layer {
  name: "ip1"
  type: "InnerProduct"
  bottom: "pool3"
  top: "ip1"
  param {
    lr_mult: 1
    decay_mult: 250
  }
  param {
    lr_mult: 2
    decay_mult: 0
  }
  inner_product_param {
    num_output: 10
    weight_filler {
      type: "gaussian"
      std: 0.01
    }
    bias_filler {
      type: "constant"
    }
  }
}
layer {
  name: "loss"
  type: "SoftmaxWithLoss"
  bottom: "ip1"
  bottom: "label"
  top: "loss"
}
I0110 18:56:45.600493 251273 net.cpp:49] Initializing net from parameters: 
name: "CIFAR10_full"
state {
  phase: TRAIN
}
layer {
  name: "cifar"
  type: "Data"
  top: "data"
  top: "label"
  include {
    phase: TRAIN
  }
  transform_param {
    mean_file: "mean.binaryproto"
  }
  data_param {
    source: "cifar10_train_lmdb"
    batch_size: 128
    backend: LMDB
  }
}
layer {
  name: "conv1"
  type: "Convolution"
  bottom: "data"
  top: "conv1"
  param {
    lr_mult: 1
  }
  param {
    lr_mult: 2
  }
  convolution_param {
    num_output: 32
    pad: 2
    kernel_size: 5
    stride: 1
    weight_filler {
      type: "gaussian"
      std: 0.0001
    }
    bias_filler {
      type: "constant"
    }
  }
}
layer {
  name: "pool1"
  type: "Pooling"
  bottom: "conv1"
  top: "pool1"
  pooling_param {
    pool: MAX
    kernel_size: 3
    stride: 2
  }
}
layer {
  name: "relu1"
  type: "ReLU"
  bottom: "pool1"
  top: "pool1"
}
layer {
  name: "norm1"
  type: "LRN"
  bottom: "pool1"
  top: "norm1"
  lrn_param {
    local_size: 3
    alpha: 5e-05
    beta: 0.75
    norm_region: WITHIN_CHANNEL
  }
}
layer {
  name: "conv2"
  type: "Convolution"
  bottom: "norm1"
  top: "conv2"
  param {
    lr_mult: 1
  }
  param {
    lr_mult: 2
  }
  convolution_param {
    num_output: 32
    pad: 2
    kernel_size: 5
    stride: 1
    weight_filler {
      type: "gaussian"
      std: 0.01
    }
    bias_filler {
      type: "constant"
    }
  }
}
layer {
  name: "relu2"
  type: "ReLU"
  bottom: "conv2"
  top: "conv2"
}
layer {
  name: "pool2"
  type: "Pooling"
  bottom: "conv2"
  top: "pool2"
  pooling_param {
    pool: AVE
    kernel_size: 3
    stride: 2
  }
}
layer {
  name: "norm2"
  type: "LRN"
  bottom: "pool2"
  top: "norm2"
  lrn_param {
    local_size: 3
    alpha: 5e-05
    beta: 0.75
    norm_region: WITHIN_CHANNEL
  }
}
layer {
  name: "conv3"
  type: "Convolution"
  bottom: "norm2"
  top: "conv3"
  convolution_param {
    num_output: 64
    pad: 2
    kernel_size: 5
    stride: 1
    weight_filler {
      type: "gaussian"
      std: 0.01
    }
    bias_filler {
      type: "constant"
    }
  }
}
layer {
  name: "relu3"
  type: "ReLU"
  bottom: "conv3"
  top: "conv3"
}
layer {
  name: "pool3"
  type: "Pooling"
  bottom: "conv3"
  top: "pool3"
  pooling_param {
    pool: AVE
    kernel_size: 3
    stride: 2
  }
}
layer {
  name: "ip1"
  type: "InnerProduct"
  bottom: "pool3"
  top: "ip1"
  param {
    lr_mult: 1
    decay_mult: 250
  }
  param {
    lr_mult: 2
    decay_mult: 0
  }
  inner_product_param {
    num_output: 10
    weight_filler {
      type: "gaussian"
      std: 0.01
    }
    bias_filler {
      type: "constant"
    }
  }
}
layer {
  name: "loss"
  type: "SoftmaxWithLoss"
  bottom: "ip1"
  bottom: "label"
  top: "loss"
}
I0110 18:56:45.601212 281373 net.cpp:352] cifar -> label
I0110 18:56:45.601336 251279 net.cpp:352] cifar -> label
I0110 18:56:45.598675 251415 net.cpp:49] Initializing net from parameters: 
name: "CIFAR10_full"
state {
  phase: TRAIN
}
layer {
  name: "cifar"
  type: "Data"
  top: "data"
  top: "label"
  include {
    phase: TRAIN
  }
  transform_param {
    mean_file: "mean.binaryproto"
  }
  data_param {
    source: "cifar10_train_lmdb"
    batch_size: 128
    backend: LMDB
  }
}
layer {
  name: "conv1"
  type: "Convolution"
  bottom: "data"
  top: "conv1"
  param {
    lr_mult: 1
  }
  param {
    lr_mult: 2
  }
  convolution_param {
    num_output: 32
    pad: 2
    kernel_size: 5
    stride: 1
    weight_filler {
      type: "gaussian"
      std: 0.0001
    }
    bias_filler {
      type: "constant"
    }
  }
}
layer {
  name: "pool1"
  type: "Pooling"
  bottom: "conv1"
  top: "pool1"
  pooling_param {
    pool: MAX
    kernel_size: 3
    stride: 2
  }
}
layer {
  name: "relu1"
  type: "ReLU"
  bottom: "pool1"
  top: "pool1"
}
layer {
  name: "norm1"
  type: "LRN"
  bottom: "pool1"
  top: "norm1"
  lrn_param {
    local_size: 3
    alpha: 5e-05
    beta: 0.75
    norm_region: WITHIN_CHANNEL
  }
}
layer {
  name: "conv2"
  type: "Convolution"
  bottom: "norm1"
  top: "conv2"
  param {
    lr_mult: 1
  }
  param {
    lr_mult: 2
  }
  convolution_param {
    num_output: 32
    pad: 2
    kernel_size: 5
    stride: 1
    weight_filler {
      type: "gaussian"
      std: 0.01
    }
    bias_filler {
      type: "constant"
    }
  }
}
layer {
  name: "relu2"
  type: "ReLU"
  bottom: "conv2"
  top: "conv2"
}
layer {
  name: "pool2"
  type: "Pooling"
  bottom: "conv2"
  top: "pool2"
  pooling_param {
    pool: AVE
    kernel_size: 3
    stride: 2
  }
}
layer {
  name: "norm2"
  type: "LRN"
  bottom: "pool2"
  top: "norm2"
  lrn_param {
    local_size: 3
    alpha: 5e-05
    beta: 0.75
    norm_region: WITHIN_CHANNEL
  }
}
layer {
  name: "conv3"
  type: "Convolution"
  bottom: "norm2"
  top: "conv3"
  convolution_param {
    num_output: 64
    pad: 2
    kernel_size: 5
    stride: 1
    weight_filler {
      type: "gaussian"
      std: 0.01
    }
    bias_filler {
      type: "constant"
    }
  }
}
layer {
  name: "relu3"
  type: "ReLU"
  bottom: "conv3"
  top: "conv3"
}
layer {
  name: "pool3"
  type: "Pooling"
  bottom: "conv3"
  top: "pool3"
  pooling_param {
    pool: AVE
    kernel_size: 3
    stride: 2
  }
}
layer {
  name: "ip1"
  type: "InnerProduct"
  bottom: "pool3"
  top: "ip1"
  param {
    lr_mult: 1
    decay_mult: 250
  }
  param {
    lr_mult: 2
    decay_mult: 0
  }
  inner_product_param {
    num_output: 10
    weight_filler {
      type: "gaussian"
      std: 0.01
    }
    bias_filler {
      type: "constant"
    }
  }
}
layer {
  name: "loss"
  type: "SoftmaxWithLoss"
  bottom: "ip1"
  bottom: "label"
  top: "loss"
}
I0110 18:56:45.600764 251321 layer_factory.hpp:74] Creating layer cifar
I0110 18:56:45.600670 251273 layer_factory.hpp:74] Creating layer cifar
I0110 18:56:45.601220 281373 net.cpp:120] Setting up cifar
I0110 18:56:45.601352 251279 net.cpp:120] Setting up cifar
I0110 18:56:45.598887 251415 layer_factory.hpp:74] Creating layer cifar
I0110 18:56:45.600790 251321 net.cpp:91] Creating Layer cifar
…
I0110 18:56:45.601379 281747 net.cpp:271] The NetState phase (0) differed from the phase (1) specified by a rule in layer accuracy
I0110 18:56:45.601367 251604 net.cpp:271] The NetState phase (0) differed from the phase (1) specified by a rule in layer cifar
I0110 18:56:45.601305 251253 net.cpp:49] Initializing net from parameters: 
name: "CIFAR10_full"
state {
  phase: TRAIN
}
layer {
  name: "cifar"
  type: "Data"
  top: "data"
  top: "label"
  include {
    phase: TRAIN
  }
  transform_param {
    mean_file: "mean.binaryproto"
  }
  data_param {
    source: "cifar10_train_lmdb"
    batch_size: 128
    backend: LMDB
  }
}
layer {
  name: "conv1"
  type: "Convolution"
  bottom: "data"
  top: "conv1"
  param {
    lr_mult: 1
  }
  param {
    lr_mult: 2
  }
  convolution_param {
    num_output: 32
    pad: 2
    kernel_size: 5
    stride: 1
    weight_filler {
      type: "gaussian"
      std: 0.0001
    }
    bias_filler {
      type: "constant"
    }
  }
}
layer {
  name: "pool1"
  type: "Pooling"
  bottom: "conv1"
  top: "pool1"
  pooling_param {
    pool: MAX
    kernel_size: 3
    stride: 2
  }
}
layer {
  name: "relu1"
  type: "ReLU"
  bottom: "pool1"
  top: "pool1"
}
layer {
  name: "norm1"
  type: "LRN"
  bottom: "pool1"
  top: "norm1"
  lrn_param {
    local_size: 3
    alpha: 5e-05
    beta: 0.75
    norm_region: WITHIN_CHANNEL
  }
}
layer {
  name: "conv2"
  type: "Convolution"
  bottom: "norm1"
  top: "conv2"
  param {
    lr_mult: 1
  }
  param {
    lr_mult: 2
  }
  convolution_param {
    num_output: 32
    pad: 2
    kernel_size: 5
    stride: 1
    weight_filler {
      type: "gaussian"
      std: 0.01
    }
    bias_filler {
      type: "constant"
    }
  }
}
layer {
  name: "relu2"
  type: "ReLU"
  bottom: "conv2"
  top: "conv2"
}
layer {
  name: "pool2"
  type: "Pooling"
  bottom: "conv2"
  top: "pool2"
  pooling_param {
    pool: AVE
    kernel_size: 3
    stride: 2
  }
}
layer {
  name: "norm2"
  type: "LRN"
  bottom: "pool2"
  top: "norm2"
  lrn_param {
    local_size: 3
    alpha: 5e-05
    beta: 0.75
    norm_region: WITHIN_CHANNEL
  }
}
layer {
  name: "conv3"
  type: "Convolution"
  bottom: "norm2"
  top: "conv3"
  convolution_param {
    num_output: 64
    pad: 2
    kernel_size: 5
    stride: 1
    weight_filler {
      type: "gaussian"
      std: 0.01
    }
    bias_filler {
      type: "constant"
    }
  }
}
layer {
  name: "relu3"
  type: "ReLU"
  bottom: "conv3"
  top: "conv3"
}
layer {
  name: "pool3"
  type: "Pooling"
  bottom: "conv3"
  top: "pool3"
  pooling_param {
    pool: AVE
    kernel_size: 3
    stride: 2
  }
}
layer {
  name: "ip1"
  type: "InnerProduct"
  bottom: "pool3"
  top: "ip1"
  param {
    lr_mult: 1
    decay_mult: 250
  }
  param {
    lr_mult: 2
    decay_mult: 0
  }
  inner_product_param {
    num_output: 10
    weight_filler {
      type: "gaussian"
      std: 0.01
    }
    bias_filler {
      type: "constant"
    }
  }
}
layer {
  name: "loss"
  type: "SoftmaxWithLoss"
  bottom: "ip1"
  bottom: "label"
  top: "loss"
}
I0110 18:56:45.601440 251003 net.cpp:352] cifar -> label
I0110 18:56:45.601449 251003 net.cpp:120] Setting up cifar
I0110 18:56:45.601387 281747 net.cpp:49] Initializing net from parameters: 
name: "CIFAR10_full"
state {
  phase: TRAIN
}
layer {
  name: "cifar"
  type: "Data"
  top: "data"
  top: "label"
  include {
    phase: TRAIN
  }
  transform_param {
    mean_file: "mean.binaryproto"
  }
  data_param {
    source: "cifar10_train_lmdb"
    batch_size: 128
    backend: LMDB
  }
}
layer {
  name: "conv1"
  type: "Convolution"
  bottom: "data"
  top: "conv1"
  param {
    lr_mult: 1
  }
  param {
    lr_mult: 2
  }
  convolution_param {
    num_output: 32
    pad: 2
    kernel_size: 5
    stride: 1
    weight_filler {
      type: "gaussian"
      std: 0.0001
    }
    bias_filler {
      type: "constant"
    }
  }
}
layer {
  name: "pool1"
  type: "Pooling"
  bottom: "conv1"
  top: "pool1"
  pooling_param {
    pool: MAX
    kernel_size: 3
    stride: 2
  }
}
layer {
  name: "relu1"
  type: "ReLU"
  bottom: "pool1"
  top: "pool1"
}
layer {
  name: "norm1"
  type: "LRN"
  bottom: "pool1"
  top: "norm1"
  lrn_param {
    local_size: 3
    alpha: 5e-05
    beta: 0.75
    norm_region: WITHIN_CHANNEL
  }
}
layer {
  name: "conv2"
  type: "Convolution"
  bottom: "norm1"
  top: "conv2"
  param {
    lr_mult: 1
  }
  param {
    lr_mult: 2
  }
  convolution_param {
    num_output: 32
    pad: 2
    kernel_size: 5
    stride: 1
    weight_filler {
      type: "gaussian"
      std: 0.01
    }
    bias_filler {
      type: "constant"
    }
  }
}
layer {
  name: "relu2"
  type: "ReLU"
  bottom: "conv2"
  top: "conv2"
}
layer {
  name: "pool2"
  type: "Pooling"
  bottom: "conv2"
  top: "pool2"
  pooling_param {
    pool: AVE
    kernel_size: 3
    stride: 2
  }
}
layer {
  name: "norm2"
  type: "LRN"
  bottom: "pool2"
  top: "norm2"
  lrn_param {
    local_size: 3
    alpha: 5e-05
    beta: 0.75
    norm_region: WITHIN_CHANNEL
  }
}
layer {
  name: "conv3"
  type: "Convolution"
  bottom: "norm2"
  top: "conv3"
  convolution_param {
    num_output: 64
    pad: 2
    kernel_size: 5
    stride: 1
    weight_filler {
      type: "gaussian"
      std: 0.01
    }
    bias_filler {
      type: "constant"
    }
  }
}
layer {
  name: "relu3"
  type: "ReLU"
  bottom: "conv3"
  top: "conv3"
}
layer {
  name: "pool3"
  type: "Pooling"
  bottom: "conv3"
  top: "pool3"
  pooling_param {
    pool: AVE
    kernel_size: 3
    stride: 2
  }
}
layer {
  name: "ip1"
  type: "InnerProduct"
  bottom: "pool3"
  top: "ip1"
  param {
    lr_mult: 1
    decay_mult: 250
  }
  param {
    lr_mult: 2
    decay_mult: 0
  }
  inner_product_param {
    num_output: 10
    weight_filler {
      type: "gaussian"
      std: 0.01
    }
    bias_filler {
      type: "constant"
    }
  }
}
layer {
  name: "loss"
  type: "SoftmaxWithLoss"
  bottom: "ip1"
  bottom: "label"
  top: "loss"
}
I0110 18:56:45.601392 251604 net.cpp:271] The NetState phase (0) differed from the phase (1) specified by a rule in layer accuracy
I0110 18:56:45.601569 281747 layer_factory.hpp:74] Creating layer cifar
I0110 18:56:45.601403 251604 net.cpp:49] Initializing net from parameters: 
name: "CIFAR10_full"
state {
  phase: TRAIN
}
layer {
  name: "cifar"
  type: "Data"
  top: "data"
  top: "label"
  include {
    phase: TRAIN
  }
  transform_param {
    mean_file: "mean.binaryproto"
  }
  data_param {
    source: "cifar10_train_lmdb"
    batch_size: 128
    backend: LMDB
  }
}
layer {
  name: "conv1"
  type: "Convolution"
  bottom: "data"
  top: "conv1"
  param {
    lr_mult: 1
  }
  param {
    lr_mult: 2
  }
  convolution_param {
    num_output: 32
    pad: 2
    kernel_size: 5
    stride: 1
    weight_filler {
      type: "gaussian"
      std: 0.0001
    }
    bias_filler {
      type: "constant"
    }
  }
}
layer {
  name: "pool1"
  type: "Pooling"
  bottom: "conv1"
  top: "pool1"
  pooling_param {
    pool: MAX
    kernel_size: 3
    stride: 2
  }
}
layer {
  name: "relu1"
  type: "ReLU"
  bottom: "pool1"
  top: "pool1"
}
layer {
  name: "norm1"
  type: "LRN"
  bottom: "pool1"
  top: "norm1"
  lrn_param {
    local_size: 3
    alpha: 5e-05
    beta: 0.75
    norm_region: WITHIN_CHANNEL
  }
}
layer {
  name: "conv2"
  type: "Convolution"
  bottom: "norm1"
  top: "conv2"
  param {
    lr_mult: 1
  }
  param {
    lr_mult: 2
  }
  convolution_param {
    num_output: 32
    pad: 2
    kernel_size: 5
    stride: 1
    weight_filler {
      type: "gaussian"
      std: 0.01
    }
    bias_filler {
      type: "constant"
    }
  }
}
layer {
  name: "relu2"
  type: "ReLU"
  bottom: "conv2"
  top: "conv2"
}
layer {
  name: "pool2"
  type: "Pooling"
  bottom: "conv2"
  top: "pool2"
  pooling_param {
    pool: AVE
    kernel_size: 3
    stride: 2
  }
}
layer {
  name: "norm2"
  type: "LRN"
  bottom: "pool2"
  top: "norm2"
  lrn_param {
    local_size: 3
    alpha: 5e-05
    beta: 0.75
    norm_region: WITHIN_CHANNEL
  }
}
layer {
  name: "conv3"
  type: "Convolution"
  bottom: "norm2"
  top: "conv3"
  convolution_param {
    num_output: 64
    pad: 2
    kernel_size: 5
    stride: 1
    weight_filler {
      type: "gaussian"
      std: 0.01
    }
    bias_filler {
      type: "constant"
    }
  }
}
layer {
  name: "relu3"
  type: "ReLU"
  bottom: "conv3"
  top: "conv3"
}
layer {
  name: "pool3"
  type: "Pooling"
  bottom: "conv3"
  top: "pool3"
  pooling_param {
    pool: AVE
    kernel_size: 3
    stride: 2
  }
}
layer {
  name: "ip1"
  type: "InnerProduct"
  bottom: "pool3"
  top: "ip1"
  param {
    lr_mult: 1
    decay_mult: 250
  }
  param {
    lr_mult: 2
    decay_mult: 0
  }
  inner_product_param {
    num_output: 10
    weight_filler {
      type: "gaussian"
      std: 0.01
    }
    bias_filler {
      type: "constant"
    }
  }
}
layer {
  name: "loss"
  type: "SoftmaxWithLoss"
  bottom: "ip1"
  bottom: "label"
  top: "loss"
}
I0110 18:56:45.601513 251253 layer_factory.hpp:74] Creating layer cifar
I0110 18:56:45.601588 281747 net.cpp:91] Creating Layer cifar
I0110 18:56:45.601593 281747 net.cpp:352] cifar -> data
I0110 18:56:45.601614 281747 net.cpp:352] cifar -> label
I0110 18:56:45.601619 251604 layer_factory.hpp:74] Creating layer cifar
I0110 18:56:45.601538 251253 net.cpp:91] Creating Layer cifar
I0110 18:56:45.601549 251253 net.cpp:352] cifar -> data
I0110 18:56:45.601624 281747 net.cpp:120] Setting up cifar
I0110 18:56:45.601585 251253 net.cpp:352] cifar -> label
I0110 18:56:45.601645 251604 net.cpp:91] Creating Layer cifar
I0110 18:56:45.601655 251604 net.cpp:352] cifar -> data
I0110 18:56:45.601598 251253 net.cpp:120] Setting up cifar
I0110 18:56:45.601693 251604 net.cpp:352] cifar -> label
I0110 18:56:45.601711 251604 net.cpp:120] Setting up cifar
I0110 18:56:45.603657 303806 db.cpp:34] Opened lmdb cifar10_train_lmdb
I0110 18:56:45.605018 303806 data_layer.cpp:72] output data size: 8,3,32,32
I0110 18:56:45.605043 303806 data_transformer.cpp:22] Loading mean file from: mean.binaryproto
I0110 18:56:45.605362 303806 net.cpp:127] Top shape: 8 3 32 32 (24576)
I0110 18:56:45.605407 303806 net.cpp:127] Top shape: 8 (8)
I0110 18:56:45.605427 303806 layer_factory.hpp:74] Creating layer conv1
I0110 18:56:45.605435 303806 net.cpp:91] Creating Layer conv1
I0110 18:56:45.605439 303806 net.cpp:394] conv1 <- data
I0110 18:56:45.605450 303806 net.cpp:352] conv1 -> conv1
I0110 18:56:45.605459 303806 net.cpp:120] Setting up conv1
I0110 18:56:45.605422 251375 db.cpp:34] Opened lmdb cifar10_train_lmdb
I0110 18:56:45.606500 251375 data_layer.cpp:72] output data size: 8,3,32,32
I0110 18:56:45.606518 251375 data_transformer.cpp:22] Loading mean file from: mean.binaryproto
I0110 18:56:45.606730 302873 db.cpp:34] Opened lmdb cifar10_train_lmdb
I0110 18:56:45.606793 251375 net.cpp:127] Top shape: 8 3 32 32 (24576)
I0110 18:56:45.606830 251375 net.cpp:127] Top shape: 8 (8)
I0110 18:56:45.606839 251375 layer_factory.hpp:74] Creating layer conv1
I0110 18:56:45.606848 251375 net.cpp:91] Creating Layer conv1
I0110 18:56:45.606851 251375 net.cpp:394] conv1 <- data
I0110 18:56:45.606861 251375 net.cpp:352] conv1 -> conv1
I0110 18:56:45.606871 251375 net.cpp:120] Setting up conv1
I0110 18:56:45.607878 302873 data_layer.cpp:72] output data size: 8,3,32,32
I0110 18:56:45.607897 302873 data_transformer.cpp:22] Loading mean file from: mean.binaryproto
I0110 18:56:45.608278 302873 net.cpp:127] Top shape: 8 3 32 32 (24576)
I0110 18:56:45.608326 302873 net.cpp:127] Top shape: 8 (8)
I0110 18:56:45.608341 302873 layer_factory.hpp:74] Creating layer conv1
I0110 18:56:45.608352 302873 net.cpp:91] Creating Layer conv1
I0110 18:56:45.608203 251422 db.cpp:34] Opened lmdb cifar10_train_lmdb
I0110 18:56:45.608359 302873 net.cpp:394] conv1 <- data
I0110 18:56:45.608376 302873 net.cpp:352] conv1 -> conv1
I0110 18:56:45.608392 302873 net.cpp:120] Setting up conv1
I0110 18:56:45.609575 251422 data_layer.cpp:72] output data size: 8,3,32,32
I0110 18:56:45.609603 251422 data_transformer.cpp:22] Loading mean file from: mean.binaryproto
I0110 18:56:45.609884 251422 net.cpp:127] Top shape: 8 3 32 32 (24576)
I0110 18:56:45.609930 251422 net.cpp:127] Top shape: 8 (8)
I0110 18:56:45.609956 251422 layer_factory.hpp:74] Creating layer conv1
I0110 18:56:45.609971 251422 net.cpp:91] Creating Layer conv1
I0110 18:56:45.609977 251422 net.cpp:394] conv1 <- data
I0110 18:56:45.609993 251422 net.cpp:352] conv1 -> conv1
I0110 18:56:45.610008 251422 net.cpp:120] Setting up conv1
I0110 18:56:45.609690 251542 db.cpp:34] Opened lmdb cifar10_train_lmdb
I0110 18:56:45.611117 251542 data_layer.cpp:72] output data size: 8,3,32,32
I0110 18:56:45.611167 251542 data_transformer.cpp:22] Loading mean file from: mean.binaryproto
I0110 18:56:45.611099 251273 db.cpp:34] Opened lmdb cifar10_train_lmdb
I0110 18:56:45.611517 251542 net.cpp:127] Top shape: 8 3 32 32 (24576)
I0110 18:56:45.611559 251542 net.cpp:127] Top shape: 8 (8)
I0110 18:56:45.611569 251542 layer_factory.hpp:74] Creating layer conv1
I0110 18:56:45.611577 251542 net.cpp:91] Creating Layer conv1
I0110 18:56:45.611582 251542 net.cpp:394] conv1 <- data
I0110 18:56:45.611591 251542 net.cpp:352] conv1 -> conv1
I0110 18:56:45.611613 251542 net.cpp:120] Setting up conv1
I0110 18:56:45.612556 251273 data_layer.cpp:72] output data size: 8,3,32,32
I0110 18:56:45.612581 251273 data_transformer.cpp:22] Loading mean file from: mean.binaryproto
I0110 18:56:45.612939 251273 net.cpp:127] Top shape: 8 3 32 32 (24576)
I0110 18:56:45.612984 251273 net.cpp:127] Top shape: 8 (8)
I0110 18:56:45.612998 251273 layer_factory.hpp:74] Creating layer conv1
I0110 18:56:45.613011 251273 net.cpp:91] Creating Layer conv1
I0110 18:56:45.613023 251273 net.cpp:394] conv1 <- data
I0110 18:56:45.613126 251203 db.cpp:34] Opened lmdb cifar10_train_lmdb
I0110 18:56:45.613039 251273 net.cpp:352] conv1 -> conv1
I0110 18:56:45.613062 251273 net.cpp:120] Setting up conv1
I0110 18:56:45.614737 251203 data_layer.cpp:72] output data size: 8,3,32,32
I0110 18:56:45.614756 251203 data_transformer.cpp:22] Loading mean file from: mean.binaryproto
I0110 18:56:45.615106 251203 net.cpp:127] Top shape: 8 3 32 32 (24576)
I0110 18:56:45.615144 251203 net.cpp:127] Top shape: 8 (8)
I0110 18:56:45.615164 251203 layer_factory.hpp:74] Creating layer conv1
I0110 18:56:45.615460 251529 db.cpp:34] Opened lmdb cifar10_train_lmdb
I0110 18:56:45.615172 251203 net.cpp:91] Creating Layer conv1
I0110 18:56:45.615176 251203 net.cpp:394] conv1 <- data
I0110 18:56:45.615187 251203 net.cpp:352] conv1 -> conv1
I0110 18:56:45.615208 251203 net.cpp:120] Setting up conv1
I0110 18:56:45.617521 251529 data_layer.cpp:72] output data size: 8,3,32,32
I0110 18:56:45.617542 251529 data_transformer.cpp:22] Loading mean file from: mean.binaryproto
I0110 18:56:45.617837 251279 db.cpp:34] Opened lmdb cifar10_train_lmdb
I0110 18:56:45.617854 251529 net.cpp:127] Top shape: 8 3 32 32 (24576)
I0110 18:56:45.617897 251529 net.cpp:127] Top shape: 8 (8)
I0110 18:56:45.617908 251529 layer_factory.hpp:74] Creating layer conv1
I0110 18:56:45.617915 251529 net.cpp:91] Creating Layer conv1
I0110 18:56:45.617919 251529 net.cpp:394] conv1 <- data
I0110 18:56:45.617930 251529 net.cpp:352] conv1 -> conv1
I0110 18:56:45.617940 251529 net.cpp:120] Setting up conv1
I0110 18:56:45.619948 251279 data_layer.cpp:72] output data size: 8,3,32,32
I0110 18:56:45.619983 251279 data_transformer.cpp:22] Loading mean file from: mean.binaryproto
I0110 18:56:45.620224 281747 db.cpp:34] Opened lmdb cifar10_train_lmdb
I0110 18:56:45.620355 251279 net.cpp:127] Top shape: 8 3 32 32 (24576)
I0110 18:56:45.620404 251279 net.cpp:127] Top shape: 8 (8)
I0110 18:56:45.620417 251279 layer_factory.hpp:74] Creating layer conv1
I0110 18:56:45.620430 251279 net.cpp:91] Creating Layer conv1
I0110 18:56:45.620438 251279 net.cpp:394] conv1 <- data
I0110 18:56:45.620465 251279 net.cpp:352] conv1 -> conv1
I0110 18:56:45.620479 251279 net.cpp:120] Setting up conv1
I0110 18:56:45.622485 281747 data_layer.cpp:72] output data size: 8,3,32,32
I0110 18:56:45.622536 281747 data_transformer.cpp:22] Loading mean file from: mean.binaryproto
I0110 18:56:45.622653 251253 db.cpp:34] Opened lmdb cifar10_train_lmdb
I0110 18:56:45.622855 281747 net.cpp:127] Top shape: 8 3 32 32 (24576)
I0110 18:56:45.622891 281747 net.cpp:127] Top shape: 8 (8)
I0110 18:56:45.622900 281747 layer_factory.hpp:74] Creating layer conv1
I0110 18:56:45.622908 281747 net.cpp:91] Creating Layer conv1
I0110 18:56:45.622912 281747 net.cpp:394] conv1 <- data
I0110 18:56:45.622925 281747 net.cpp:352] conv1 -> conv1
I0110 18:56:45.622934 281747 net.cpp:120] Setting up conv1
I0110 18:56:45.625067 251253 data_layer.cpp:72] output data size: 8,3,32,32
I0110 18:56:45.625089 251253 data_transformer.cpp:22] Loading mean file from: mean.binaryproto
I0110 18:56:45.625427 251253 net.cpp:127] Top shape: 8 3 32 32 (24576)
I0110 18:56:45.625473 251253 net.cpp:127] Top shape: 8 (8)
I0110 18:56:45.625499 251253 layer_factory.hpp:74] Creating layer conv1
I0110 18:56:45.625509 251253 net.cpp:91] Creating Layer conv1
I0110 18:56:45.625515 251253 net.cpp:394] conv1 <- data
I0110 18:56:45.625540 251253 net.cpp:352] conv1 -> conv1
I0110 18:56:45.625556 251253 net.cpp:120] Setting up conv1
I0110 18:56:45.623042 251415 db.cpp:34] Opened lmdb cifar10_train_lmdb
I0110 18:56:45.625592 251415 data_layer.cpp:72] output data size: 8,3,32,32
I0110 18:56:45.625638 251415 data_transformer.cpp:22] Loading mean file from: mean.binaryproto
I0110 18:56:45.628371 251604 db.cpp:34] Opened lmdb cifar10_train_lmdb
I0110 18:56:45.626039 251415 net.cpp:127] Top shape: 8 3 32 32 (24576)
I0110 18:56:45.626078 251415 net.cpp:127] Top shape: 8 (8)
I0110 18:56:45.626099 251415 layer_factory.hpp:74] Creating layer conv1
I0110 18:56:45.626108 251415 net.cpp:91] Creating Layer conv1
I0110 18:56:45.626123 251415 net.cpp:394] conv1 <- data
I0110 18:56:45.626134 251415 net.cpp:352] conv1 -> conv1
I0110 18:56:45.626144 251415 net.cpp:120] Setting up conv1
I0110 18:56:45.631024 251604 data_layer.cpp:72] output data size: 8,3,32,32
I0110 18:56:45.631057 251604 data_transformer.cpp:22] Loading mean file from: mean.binaryproto
I0110 18:56:45.630828 251321 db.cpp:34] Opened lmdb cifar10_train_lmdb
I0110 18:56:45.631448 251604 net.cpp:127] Top shape: 8 3 32 32 (24576)
I0110 18:56:45.631487 251604 net.cpp:127] Top shape: 8 (8)
I0110 18:56:45.631499 251604 layer_factory.hpp:74] Creating layer conv1
I0110 18:56:45.631506 251604 net.cpp:91] Creating Layer conv1
I0110 18:56:45.631510 251604 net.cpp:394] conv1 <- data
I0110 18:56:45.631521 251604 net.cpp:352] conv1 -> conv1
I0110 18:56:45.631532 251604 net.cpp:120] Setting up conv1
I0110 18:56:45.633710 251321 data_layer.cpp:72] output data size: 8,3,32,32
I0110 18:56:45.633752 251321 data_transformer.cpp:22] Loading mean file from: mean.binaryproto
I0110 18:56:45.634413 251003 db.cpp:34] Opened lmdb cifar10_train_lmdb
I0110 18:56:45.634609 251003 data_layer.cpp:72] output data size: 8,3,32,32
I0110 18:56:45.634634 251003 data_transformer.cpp:22] Loading mean file from: mean.binaryproto
I0110 18:56:45.634690 281373 db.cpp:34] Opened lmdb cifar10_train_lmdb
I0110 18:56:45.634140 251321 net.cpp:127] Top shape: 8 3 32 32 (24576)
I0110 18:56:45.634177 251321 net.cpp:127] Top shape: 8 (8)
I0110 18:56:45.634198 251321 layer_factory.hpp:74] Creating layer conv1
I0110 18:56:45.634207 251321 net.cpp:91] Creating Layer conv1
I0110 18:56:45.634210 251321 net.cpp:394] conv1 <- data
I0110 18:56:45.634220 251321 net.cpp:352] conv1 -> conv1
I0110 18:56:45.634230 251321 net.cpp:120] Setting up conv1
I0110 18:56:45.634908 281373 data_layer.cpp:72] output data size: 8,3,32,32
I0110 18:56:45.634953 281373 data_transformer.cpp:22] Loading mean file from: mean.binaryproto
I0110 18:56:45.634922 251003 net.cpp:127] Top shape: 8 3 32 32 (24576)
I0110 18:56:45.634959 251003 net.cpp:127] Top shape: 8 (8)
I0110 18:56:45.634969 251003 layer_factory.hpp:74] Creating layer conv1
I0110 18:56:45.634977 251003 net.cpp:91] Creating Layer conv1
I0110 18:56:45.634981 251003 net.cpp:394] conv1 <- data
I0110 18:56:45.634992 251003 net.cpp:352] conv1 -> conv1
I0110 18:56:45.635002 251003 net.cpp:120] Setting up conv1
I0110 18:56:45.635278 281373 net.cpp:127] Top shape: 8 3 32 32 (24576)
I0110 18:56:45.635324 281373 net.cpp:127] Top shape: 8 (8)
I0110 18:56:45.635339 281373 layer_factory.hpp:74] Creating layer conv1
I0110 18:56:45.635351 281373 net.cpp:91] Creating Layer conv1
I0110 18:56:45.635360 281373 net.cpp:394] conv1 <- data
I0110 18:56:45.635375 281373 net.cpp:352] conv1 -> conv1
I0110 18:56:45.635404 281373 net.cpp:120] Setting up conv1
I0110 18:56:45.656922 303806 net.cpp:127] Top shape: 8 32 32 32 (262144)
I0110 18:56:45.656962 303806 layer_factory.hpp:74] Creating layer pool1
I0110 18:56:45.656971 303806 net.cpp:91] Creating Layer pool1
I0110 18:56:45.656975 303806 net.cpp:394] pool1 <- conv1
I0110 18:56:45.656983 303806 net.cpp:352] pool1 -> pool1
I0110 18:56:45.656990 303806 net.cpp:120] Setting up pool1
I0110 18:56:45.656998 303806 net.cpp:127] Top shape: 8 32 16 16 (65536)
I0110 18:56:45.657014 303806 layer_factory.hpp:74] Creating layer relu1
I0110 18:56:45.657019 303806 net.cpp:91] Creating Layer relu1
I0110 18:56:45.657021 303806 net.cpp:394] relu1 <- pool1
I0110 18:56:45.657024 303806 net.cpp:341] relu1 -> pool1 (in-place)
I0110 18:56:45.657028 303806 net.cpp:120] Setting up relu1
I0110 18:56:45.657032 303806 net.cpp:127] Top shape: 8 32 16 16 (65536)
I0110 18:56:45.657035 303806 layer_factory.hpp:74] Creating layer norm1
I0110 18:56:45.657042 303806 net.cpp:91] Creating Layer norm1
I0110 18:56:45.657045 303806 net.cpp:394] norm1 <- pool1
I0110 18:56:45.657048 303806 net.cpp:352] norm1 -> norm1
I0110 18:56:45.657054 303806 net.cpp:120] Setting up norm1
I0110 18:56:45.657084 303806 net.cpp:127] Top shape: 8 32 16 16 (65536)
I0110 18:56:45.657090 303806 layer_factory.hpp:74] Creating layer conv2
I0110 18:56:45.657095 303806 net.cpp:91] Creating Layer conv2
I0110 18:56:45.657099 303806 net.cpp:394] conv2 <- norm1
I0110 18:56:45.657104 303806 net.cpp:352] conv2 -> conv2
I0110 18:56:45.657109 303806 net.cpp:120] Setting up conv2
I0110 18:56:45.674185 302873 net.cpp:127] Top shape: 8 32 32 32 (262144)
I0110 18:56:45.674221 302873 layer_factory.hpp:74] Creating layer pool1
I0110 18:56:45.674233 302873 net.cpp:91] Creating Layer pool1
I0110 18:56:45.674237 302873 net.cpp:394] pool1 <- conv1
I0110 18:56:45.674242 302873 net.cpp:352] pool1 -> pool1
I0110 18:56:45.674247 302873 net.cpp:120] Setting up pool1
I0110 18:56:45.674260 302873 net.cpp:127] Top shape: 8 32 16 16 (65536)
I0110 18:56:45.674265 302873 layer_factory.hpp:74] Creating layer relu1
I0110 18:56:45.674269 302873 net.cpp:91] Creating Layer relu1
I0110 18:56:45.674273 302873 net.cpp:394] relu1 <- pool1
I0110 18:56:45.674278 302873 net.cpp:341] relu1 -> pool1 (in-place)
I0110 18:56:45.674281 302873 net.cpp:120] Setting up relu1
I0110 18:56:45.674285 302873 net.cpp:127] Top shape: 8 32 16 16 (65536)
I0110 18:56:45.674288 302873 layer_factory.hpp:74] Creating layer norm1
I0110 18:56:45.674293 302873 net.cpp:91] Creating Layer norm1
I0110 18:56:45.674296 302873 net.cpp:394] norm1 <- pool1
I0110 18:56:45.674300 302873 net.cpp:352] norm1 -> norm1
I0110 18:56:45.674306 302873 net.cpp:120] Setting up norm1
I0110 18:56:45.674336 302873 net.cpp:127] Top shape: 8 32 16 16 (65536)
I0110 18:56:45.674343 302873 layer_factory.hpp:74] Creating layer conv2
I0110 18:56:45.674350 302873 net.cpp:91] Creating Layer conv2
I0110 18:56:45.674352 302873 net.cpp:394] conv2 <- norm1
I0110 18:56:45.674356 302873 net.cpp:352] conv2 -> conv2
I0110 18:56:45.674361 302873 net.cpp:120] Setting up conv2
I0110 18:56:45.674429 281373 net.cpp:127] Top shape: 8 32 32 32 (262144)
I0110 18:56:45.674494 281373 layer_factory.hpp:74] Creating layer pool1
I0110 18:56:45.674517 281373 net.cpp:91] Creating Layer pool1
I0110 18:56:45.674525 281373 net.cpp:394] pool1 <- conv1
I0110 18:56:45.674537 281373 net.cpp:352] pool1 -> pool1
I0110 18:56:45.674552 281373 net.cpp:120] Setting up pool1
I0110 18:56:45.674578 281373 net.cpp:127] Top shape: 8 32 16 16 (65536)
I0110 18:56:45.674590 281373 layer_factory.hpp:74] Creating layer relu1
I0110 18:56:45.674600 281373 net.cpp:91] Creating Layer relu1
I0110 18:56:45.674607 281373 net.cpp:394] relu1 <- pool1
I0110 18:56:45.674615 281373 net.cpp:341] relu1 -> pool1 (in-place)
I0110 18:56:45.674624 281373 net.cpp:120] Setting up relu1
I0110 18:56:45.674633 281373 net.cpp:127] Top shape: 8 32 16 16 (65536)
I0110 18:56:45.674645 281373 layer_factory.hpp:74] Creating layer norm1
I0110 18:56:45.674659 281373 net.cpp:91] Creating Layer norm1
I0110 18:56:45.674666 281373 net.cpp:394] norm1 <- pool1
I0110 18:56:45.674679 281373 net.cpp:352] norm1 -> norm1
I0110 18:56:45.674692 281373 net.cpp:120] Setting up norm1
I0110 18:56:45.674752 281373 net.cpp:127] Top shape: 8 32 16 16 (65536)
I0110 18:56:45.674764 281373 layer_factory.hpp:74] Creating layer conv2
I0110 18:56:45.674777 281373 net.cpp:91] Creating Layer conv2
I0110 18:56:45.674785 281373 net.cpp:394] conv2 <- norm1
I0110 18:56:45.674798 281373 net.cpp:352] conv2 -> conv2
I0110 18:56:45.674810 281373 net.cpp:120] Setting up conv2
I0110 18:56:45.675798 281747 net.cpp:127] Top shape: 8 32 32 32 (262144)
I0110 18:56:45.675835 281747 layer_factory.hpp:74] Creating layer pool1
I0110 18:56:45.675846 281747 net.cpp:91] Creating Layer pool1
I0110 18:56:45.675849 281747 net.cpp:394] pool1 <- conv1
I0110 18:56:45.675854 281747 net.cpp:352] pool1 -> pool1
I0110 18:56:45.675860 281747 net.cpp:120] Setting up pool1
I0110 18:56:45.675869 281747 net.cpp:127] Top shape: 8 32 16 16 (65536)
I0110 18:56:45.675873 281747 layer_factory.hpp:74] Creating layer relu1
I0110 18:56:45.675879 281747 net.cpp:91] Creating Layer relu1
I0110 18:56:45.675566 251542 net.cpp:127] Top shape: 8 32 32 32 (262144)
I0110 18:56:45.675604 251542 layer_factory.hpp:74] Creating layer pool1
I0110 18:56:45.675880 281747 net.cpp:394] relu1 <- pool1
I0110 18:56:45.675885 281747 net.cpp:341] relu1 -> pool1 (in-place)
I0110 18:56:45.675889 281747 net.cpp:120] Setting up relu1
I0110 18:56:45.675614 251542 net.cpp:91] Creating Layer pool1
I0110 18:56:45.675617 251542 net.cpp:394] pool1 <- conv1
I0110 18:56:45.675622 251542 net.cpp:352] pool1 -> pool1
I0110 18:56:45.675628 251542 net.cpp:120] Setting up pool1
I0110 18:56:45.675894 281747 net.cpp:127] Top shape: 8 32 16 16 (65536)
I0110 18:56:45.675896 281747 layer_factory.hpp:74] Creating layer norm1
I0110 18:56:45.675901 281747 net.cpp:91] Creating Layer norm1
I0110 18:56:45.675642 251542 net.cpp:127] Top shape: 8 32 16 16 (65536)
I0110 18:56:45.675647 251542 layer_factory.hpp:74] Creating layer relu1
I0110 18:56:45.675905 281747 net.cpp:394] norm1 <- pool1
I0110 18:56:45.675909 281747 net.cpp:352] norm1 -> norm1
I0110 18:56:45.675915 281747 net.cpp:120] Setting up norm1
I0110 18:56:45.675652 251542 net.cpp:91] Creating Layer relu1
I0110 18:56:45.675655 251542 net.cpp:394] relu1 <- pool1
I0110 18:56:45.675658 251542 net.cpp:341] relu1 -> pool1 (in-place)
I0110 18:56:45.675662 251542 net.cpp:120] Setting up relu1
I0110 18:56:45.675942 281747 net.cpp:127] Top shape: 8 32 16 16 (65536)
I0110 18:56:45.675961 281747 layer_factory.hpp:74] Creating layer conv2
I0110 18:56:45.675667 251542 net.cpp:127] Top shape: 8 32 16 16 (65536)
I0110 18:56:45.675669 251542 layer_factory.hpp:74] Creating layer norm1
I0110 18:56:45.675674 251542 net.cpp:91] Creating Layer norm1
I0110 18:56:45.675968 281747 net.cpp:91] Creating Layer conv2
I0110 18:56:45.675971 281747 net.cpp:394] conv2 <- norm1
I0110 18:56:45.675678 251542 net.cpp:394] norm1 <- pool1
I0110 18:56:45.675685 251542 net.cpp:352] norm1 -> norm1
I0110 18:56:45.675976 281747 net.cpp:352] conv2 -> conv2
I0110 18:56:45.675981 281747 net.cpp:120] Setting up conv2
I0110 18:56:45.675691 251542 net.cpp:120] Setting up norm1
I0110 18:56:45.675731 251542 net.cpp:127] Top shape: 8 32 16 16 (65536)
I0110 18:56:45.675737 251542 layer_factory.hpp:74] Creating layer conv2
I0110 18:56:45.675745 251542 net.cpp:91] Creating Layer conv2
I0110 18:56:45.675747 251542 net.cpp:394] conv2 <- norm1
I0110 18:56:45.675751 251542 net.cpp:352] conv2 -> conv2
I0110 18:56:45.675756 251542 net.cpp:120] Setting up conv2
I0110 18:56:45.676178 251279 net.cpp:127] Top shape: 8 32 32 32 (262144)
I0110 18:56:45.676205 251279 layer_factory.hpp:74] Creating layer pool1
I0110 18:56:45.675577 251321 net.cpp:127] Top shape: 8 32 32 32 (262144)
I0110 18:56:45.675603 251321 layer_factory.hpp:74] Creating layer pool1
I0110 18:56:45.675612 251321 net.cpp:91] Creating Layer pool1
I0110 18:56:45.676214 251279 net.cpp:91] Creating Layer pool1
I0110 18:56:45.676218 251279 net.cpp:394] pool1 <- conv1
I0110 18:56:45.676223 251279 net.cpp:352] pool1 -> pool1
I0110 18:56:45.676229 251279 net.cpp:120] Setting up pool1
I0110 18:56:45.675616 251321 net.cpp:394] pool1 <- conv1
I0110 18:56:45.675621 251321 net.cpp:352] pool1 -> pool1
I0110 18:56:45.675628 251321 net.cpp:120] Setting up pool1
I0110 18:56:45.675640 251321 net.cpp:127] Top shape: 8 32 16 16 (65536)
I0110 18:56:45.676129 251375 net.cpp:127] Top shape: 8 32 32 32 (262144)
I0110 18:56:45.676167 251375 layer_factory.hpp:74] Creating layer pool1
I0110 18:56:45.676244 251279 net.cpp:127] Top shape: 8 32 16 16 (65536)
I0110 18:56:45.676249 251279 layer_factory.hpp:74] Creating layer relu1
I0110 18:56:45.676254 251279 net.cpp:91] Creating Layer relu1
I0110 18:56:45.675644 251321 layer_factory.hpp:74] Creating layer relu1
I0110 18:56:45.675649 251321 net.cpp:91] Creating Layer relu1
I0110 18:56:45.675652 251321 net.cpp:394] relu1 <- pool1
I0110 18:56:45.675655 251321 net.cpp:341] relu1 -> pool1 (in-place)
I0110 18:56:45.676175 251375 net.cpp:91] Creating Layer pool1
I0110 18:56:45.676178 251375 net.cpp:394] pool1 <- conv1
I0110 18:56:45.676183 251375 net.cpp:352] pool1 -> pool1
I0110 18:56:45.676189 251375 net.cpp:120] Setting up pool1
I0110 18:56:45.676101 251422 net.cpp:127] Top shape: 8 32 32 32 (262144)
I0110 18:56:45.676128 251422 layer_factory.hpp:74] Creating layer pool1
I0110 18:56:45.676137 251422 net.cpp:91] Creating Layer pool1
I0110 18:56:45.676141 251422 net.cpp:394] pool1 <- conv1
I0110 18:56:45.676146 251422 net.cpp:352] pool1 -> pool1
I0110 18:56:45.676153 251422 net.cpp:120] Setting up pool1
I0110 18:56:45.676165 251422 net.cpp:127] Top shape: 8 32 16 16 (65536)
I0110 18:56:45.676170 251422 layer_factory.hpp:74] Creating layer relu1
I0110 18:56:45.676256 251279 net.cpp:394] relu1 <- pool1
I0110 18:56:45.676260 251279 net.cpp:341] relu1 -> pool1 (in-place)
I0110 18:56:45.676264 251279 net.cpp:120] Setting up relu1
I0110 18:56:45.675658 251321 net.cpp:120] Setting up relu1
I0110 18:56:45.675662 251321 net.cpp:127] Top shape: 8 32 16 16 (65536)
I0110 18:56:45.675665 251321 layer_factory.hpp:74] Creating layer norm1
I0110 18:56:45.676131 251003 net.cpp:127] Top shape: 8 32 32 32 (262144)
I0110 18:56:45.676162 251003 layer_factory.hpp:74] Creating layer pool1
I0110 18:56:45.676203 251375 net.cpp:127] Top shape: 8 32 16 16 (65536)
I0110 18:56:45.676208 251375 layer_factory.hpp:74] Creating layer relu1
I0110 18:56:45.676175 251422 net.cpp:91] Creating Layer relu1
I0110 18:56:45.676178 251422 net.cpp:394] relu1 <- pool1
I0110 18:56:45.676182 251422 net.cpp:341] relu1 -> pool1 (in-place)
I0110 18:56:45.676185 251422 net.cpp:120] Setting up relu1
I0110 18:56:45.676188 251422 net.cpp:127] Top shape: 8 32 16 16 (65536)
I0110 18:56:45.676192 251422 layer_factory.hpp:74] Creating layer norm1
I0110 18:56:45.676198 251422 net.cpp:91] Creating Layer norm1
I0110 18:56:45.676201 251422 net.cpp:394] norm1 <- pool1
I0110 18:56:45.676204 251422 net.cpp:352] norm1 -> norm1
I0110 18:56:45.676209 251422 net.cpp:120] Setting up norm1
I0110 18:56:45.676239 251422 net.cpp:127] Top shape: 8 32 16 16 (65536)
I0110 18:56:45.676244 251422 layer_factory.hpp:74] Creating layer conv2
I0110 18:56:45.676249 251422 net.cpp:91] Creating Layer conv2
I0110 18:56:45.676250 251422 net.cpp:394] conv2 <- norm1
I0110 18:56:45.676267 251279 net.cpp:127] Top shape: 8 32 16 16 (65536)
I0110 18:56:45.676271 251279 layer_factory.hpp:74] Creating layer norm1
I0110 18:56:45.676276 251279 net.cpp:91] Creating Layer norm1
I0110 18:56:45.676280 251279 net.cpp:394] norm1 <- pool1
I0110 18:56:45.675671 251321 net.cpp:91] Creating Layer norm1
I0110 18:56:45.675674 251321 net.cpp:394] norm1 <- pool1
I0110 18:56:45.675678 251321 net.cpp:352] norm1 -> norm1
I0110 18:56:45.676173 251003 net.cpp:91] Creating Layer pool1
I0110 18:56:45.676177 251003 net.cpp:394] pool1 <- conv1
I0110 18:56:45.676180 251003 net.cpp:352] pool1 -> pool1
I0110 18:56:45.676187 251003 net.cpp:120] Setting up pool1
I0110 18:56:45.676213 251375 net.cpp:91] Creating Layer relu1
I0110 18:56:45.676214 251375 net.cpp:394] relu1 <- pool1
I0110 18:56:45.676218 251375 net.cpp:341] relu1 -> pool1 (in-place)
I0110 18:56:45.676221 251375 net.cpp:120] Setting up relu1
I0110 18:56:45.676255 251422 net.cpp:352] conv2 -> conv2
I0110 18:56:45.676260 251422 net.cpp:120] Setting up conv2
I0110 18:56:45.676285 251279 net.cpp:352] norm1 -> norm1
I0110 18:56:45.676291 251279 net.cpp:120] Setting up norm1
I0110 18:56:45.675683 251321 net.cpp:120] Setting up norm1
I0110 18:56:45.676195 251003 net.cpp:127] Top shape: 8 32 16 16 (65536)
I0110 18:56:45.676199 251003 layer_factory.hpp:74] Creating layer relu1
I0110 18:56:45.676204 251003 net.cpp:91] Creating Layer relu1
I0110 18:56:45.676206 251003 net.cpp:394] relu1 <- pool1
I0110 18:56:45.676225 251375 net.cpp:127] Top shape: 8 32 16 16 (65536)
I0110 18:56:45.676229 251375 layer_factory.hpp:74] Creating layer norm1
I0110 18:56:45.676234 251375 net.cpp:91] Creating Layer norm1
I0110 18:56:45.676331 251279 net.cpp:127] Top shape: 8 32 16 16 (65536)
I0110 18:56:45.676338 251279 layer_factory.hpp:74] Creating layer conv2
I0110 18:56:45.675714 251321 net.cpp:127] Top shape: 8 32 16 16 (65536)
I0110 18:56:45.675720 251321 layer_factory.hpp:74] Creating layer conv2
I0110 18:56:45.676209 251003 net.cpp:341] relu1 -> pool1 (in-place)
I0110 18:56:45.676213 251003 net.cpp:120] Setting up relu1
I0110 18:56:45.676216 251003 net.cpp:127] Top shape: 8 32 16 16 (65536)
I0110 18:56:45.676219 251003 layer_factory.hpp:74] Creating layer norm1
I0110 18:56:45.676237 251375 net.cpp:394] norm1 <- pool1
I0110 18:56:45.676240 251375 net.cpp:352] norm1 -> norm1
I0110 18:56:45.676246 251375 net.cpp:120] Setting up norm1
I0110 18:56:45.676347 251279 net.cpp:91] Creating Layer conv2
I0110 18:56:45.676349 251279 net.cpp:394] conv2 <- norm1
I0110 18:56:45.675725 251321 net.cpp:91] Creating Layer conv2
I0110 18:56:45.675727 251321 net.cpp:394] conv2 <- norm1
I0110 18:56:45.675735 251321 net.cpp:352] conv2 -> conv2
I0110 18:56:45.675740 251321 net.cpp:120] Setting up conv2
I0110 18:56:45.676226 251003 net.cpp:91] Creating Layer norm1
I0110 18:56:45.676229 251003 net.cpp:394] norm1 <- pool1
I0110 18:56:45.676232 251003 net.cpp:352] norm1 -> norm1
I0110 18:56:45.676273 251375 net.cpp:127] Top shape: 8 32 16 16 (65536)
I0110 18:56:45.676292 251375 layer_factory.hpp:74] Creating layer conv2
I0110 18:56:45.676353 251279 net.cpp:352] conv2 -> conv2
I0110 18:56:45.676358 251279 net.cpp:120] Setting up conv2
I0110 18:56:45.676237 251003 net.cpp:120] Setting up norm1
I0110 18:56:45.676300 251375 net.cpp:91] Creating Layer conv2
I0110 18:56:45.676302 251375 net.cpp:394] conv2 <- norm1
I0110 18:56:45.676306 251375 net.cpp:352] conv2 -> conv2
I0110 18:56:45.676267 251003 net.cpp:127] Top shape: 8 32 16 16 (65536)
I0110 18:56:45.676275 251003 layer_factory.hpp:74] Creating layer conv2
I0110 18:56:45.676311 251375 net.cpp:120] Setting up conv2
I0110 18:56:45.676290 251003 net.cpp:91] Creating Layer conv2
I0110 18:56:45.676293 251003 net.cpp:394] conv2 <- norm1
I0110 18:56:45.676300 251003 net.cpp:352] conv2 -> conv2
I0110 18:56:45.676304 251003 net.cpp:120] Setting up conv2
I0110 18:56:45.678128 303806 net.cpp:127] Top shape: 8 32 16 16 (65536)
I0110 18:56:45.678158 303806 layer_factory.hpp:74] Creating layer relu2
I0110 18:56:45.678164 303806 net.cpp:91] Creating Layer relu2
I0110 18:56:45.678167 303806 net.cpp:394] relu2 <- conv2
I0110 18:56:45.678170 303806 net.cpp:341] relu2 -> conv2 (in-place)
I0110 18:56:45.678175 303806 net.cpp:120] Setting up relu2
I0110 18:56:45.678177 303806 net.cpp:127] Top shape: 8 32 16 16 (65536)
I0110 18:56:45.678181 303806 layer_factory.hpp:74] Creating layer pool2
I0110 18:56:45.678185 303806 net.cpp:91] Creating Layer pool2
I0110 18:56:45.678187 303806 net.cpp:394] pool2 <- conv2
I0110 18:56:45.678192 303806 net.cpp:352] pool2 -> pool2
I0110 18:56:45.678196 303806 net.cpp:120] Setting up pool2
I0110 18:56:45.678200 303806 net.cpp:127] Top shape: 8 32 8 8 (16384)
I0110 18:56:45.678215 303806 layer_factory.hpp:74] Creating layer norm2
I0110 18:56:45.678222 303806 net.cpp:91] Creating Layer norm2
I0110 18:56:45.678225 303806 net.cpp:394] norm2 <- pool2
I0110 18:56:45.678227 303806 net.cpp:352] norm2 -> norm2
I0110 18:56:45.678231 303806 net.cpp:120] Setting up norm2
I0110 18:56:45.678246 303806 net.cpp:127] Top shape: 8 32 8 8 (16384)
I0110 18:56:45.678249 303806 layer_factory.hpp:74] Creating layer conv3
I0110 18:56:45.678299 281373 net.cpp:127] Top shape: 8 32 16 16 (65536)
I0110 18:56:45.678256 303806 net.cpp:91] Creating Layer conv3
I0110 18:56:45.678257 303806 net.cpp:394] conv3 <- norm2
I0110 18:56:45.678261 303806 net.cpp:352] conv3 -> conv3
I0110 18:56:45.678267 303806 net.cpp:120] Setting up conv3
I0110 18:56:45.677973 251542 net.cpp:127] Top shape: 8 32 16 16 (65536)
I0110 18:56:45.677990 251542 layer_factory.hpp:74] Creating layer relu2
I0110 18:56:45.677995 251542 net.cpp:91] Creating Layer relu2
I0110 18:56:45.677999 251542 net.cpp:394] relu2 <- conv2
I0110 18:56:45.678004 251542 net.cpp:341] relu2 -> conv2 (in-place)
I0110 18:56:45.678318 281373 layer_factory.hpp:74] Creating layer relu2
I0110 18:56:45.678323 281373 net.cpp:91] Creating Layer relu2
I0110 18:56:45.678326 281373 net.cpp:394] relu2 <- conv2
I0110 18:56:45.678221 302873 net.cpp:127] Top shape: 8 32 16 16 (65536)
I0110 18:56:45.678252 302873 layer_factory.hpp:74] Creating layer relu2
I0110 18:56:45.678258 302873 net.cpp:91] Creating Layer relu2
I0110 18:56:45.678009 251542 net.cpp:120] Setting up relu2
I0110 18:56:45.678011 251542 net.cpp:127] Top shape: 8 32 16 16 (65536)
I0110 18:56:45.678014 251542 layer_factory.hpp:74] Creating layer pool2
I0110 18:56:45.678019 251542 net.cpp:91] Creating Layer pool2
I0110 18:56:45.678020 251542 net.cpp:394] pool2 <- conv2
I0110 18:56:45.678023 251542 net.cpp:352] pool2 -> pool2
I0110 18:56:45.678027 251542 net.cpp:120] Setting up pool2
I0110 18:56:45.678030 251542 net.cpp:127] Top shape: 8 32 8 8 (16384)
I0110 18:56:45.678033 251542 layer_factory.hpp:74] Creating layer norm2
I0110 18:56:45.678333 281373 net.cpp:341] relu2 -> conv2 (in-place)
I0110 18:56:45.678338 281373 net.cpp:120] Setting up relu2
I0110 18:56:45.678340 281373 net.cpp:127] Top shape: 8 32 16 16 (65536)
I0110 18:56:45.678344 281373 layer_factory.hpp:74] Creating layer pool2
I0110 18:56:45.678313 251279 net.cpp:127] Top shape: 8 32 16 16 (65536)
I0110 18:56:45.678330 251279 layer_factory.hpp:74] Creating layer relu2
I0110 18:56:45.678336 251279 net.cpp:91] Creating Layer relu2
I0110 18:56:45.678339 251279 net.cpp:394] relu2 <- conv2
I0110 18:56:45.677707 251321 net.cpp:127] Top shape: 8 32 16 16 (65536)
I0110 18:56:45.677727 251321 layer_factory.hpp:74] Creating layer relu2
I0110 18:56:45.677745 251321 net.cpp:91] Creating Layer relu2
I0110 18:56:45.677748 251321 net.cpp:394] relu2 <- conv2
I0110 18:56:45.678267 281747 net.cpp:127] Top shape: 8 32 16 16 (65536)
I0110 18:56:45.678287 281747 layer_factory.hpp:74] Creating layer relu2
I0110 18:56:45.678292 281747 net.cpp:91] Creating Layer relu2
I0110 18:56:45.678294 281747 net.cpp:394] relu2 <- conv2
I0110 18:56:45.678298 281747 net.cpp:341] relu2 -> conv2 (in-place)
I0110 18:56:45.678251 251375 net.cpp:127] Top shape: 8 32 16 16 (65536)
I0110 18:56:45.678267 251375 layer_factory.hpp:74] Creating layer relu2
I0110 18:56:45.678284 251375 net.cpp:91] Creating Layer relu2
I0110 18:56:45.678287 251375 net.cpp:394] relu2 <- conv2
I0110 18:56:45.678261 302873 net.cpp:394] relu2 <- conv2
I0110 18:56:45.678266 302873 net.cpp:341] relu2 -> conv2 (in-place)
I0110 18:56:45.678269 302873 net.cpp:120] Setting up relu2
I0110 18:56:45.678272 302873 net.cpp:127] Top shape: 8 32 16 16 (65536)
I0110 18:56:45.678275 302873 layer_factory.hpp:74] Creating layer pool2
I0110 18:56:45.678279 302873 net.cpp:91] Creating Layer pool2
I0110 18:56:45.678282 302873 net.cpp:394] pool2 <- conv2
I0110 18:56:45.678287 302873 net.cpp:352] pool2 -> pool2
I0110 18:56:45.678040 251542 net.cpp:91] Creating Layer norm2
I0110 18:56:45.678042 251542 net.cpp:394] norm2 <- pool2
I0110 18:56:45.678045 251542 net.cpp:352] norm2 -> norm2
I0110 18:56:45.678347 281373 net.cpp:91] Creating Layer pool2
I0110 18:56:45.678349 281373 net.cpp:394] pool2 <- conv2
I0110 18:56:45.678354 281373 net.cpp:352] pool2 -> pool2
I0110 18:56:45.678347 251279 net.cpp:341] relu2 -> conv2 (in-place)
I0110 18:56:45.678356 251279 net.cpp:120] Setting up relu2
I0110 18:56:45.678359 251279 net.cpp:127] Top shape: 8 32 16 16 (65536)
I0110 18:56:45.678364 251279 layer_factory.hpp:74] Creating layer pool2
I0110 18:56:45.678369 251279 net.cpp:91] Creating Layer pool2
I0110 18:56:45.678370 251279 net.cpp:394] pool2 <- conv2
I0110 18:56:45.678375 251279 net.cpp:352] pool2 -> pool2
I0110 18:56:45.677752 251321 net.cpp:341] relu2 -> conv2 (in-place)
I0110 18:56:45.677757 251321 net.cpp:120] Setting up relu2
I0110 18:56:45.677759 251321 net.cpp:127] Top shape: 8 32 16 16 (65536)
I0110 18:56:45.677763 251321 layer_factory.hpp:74] Creating layer pool2
I0110 18:56:45.677769 251321 net.cpp:91] Creating Layer pool2
I0110 18:56:45.677772 251321 net.cpp:394] pool2 <- conv2
I0110 18:56:45.677775 251321 net.cpp:352] pool2 -> pool2
I0110 18:56:45.677779 251321 net.cpp:120] Setting up pool2
I0110 18:56:45.678303 281747 net.cpp:120] Setting up relu2
I0110 18:56:45.678304 281747 net.cpp:127] Top shape: 8 32 16 16 (65536)
I0110 18:56:45.678308 281747 layer_factory.hpp:74] Creating layer pool2
I0110 18:56:45.678313 281747 net.cpp:91] Creating Layer pool2
I0110 18:56:45.678314 281747 net.cpp:394] pool2 <- conv2
I0110 18:56:45.678319 281747 net.cpp:352] pool2 -> pool2
I0110 18:56:45.678323 281747 net.cpp:120] Setting up pool2
I0110 18:56:45.678292 251375 net.cpp:341] relu2 -> conv2 (in-place)
I0110 18:56:45.678297 251375 net.cpp:120] Setting up relu2
I0110 18:56:45.678298 251375 net.cpp:127] Top shape: 8 32 16 16 (65536)
I0110 18:56:45.678303 251375 layer_factory.hpp:74] Creating layer pool2
I0110 18:56:45.678311 251375 net.cpp:91] Creating Layer pool2
I0110 18:56:45.678290 302873 net.cpp:120] Setting up pool2
I0110 18:56:45.678294 302873 net.cpp:127] Top shape: 8 32 8 8 (16384)
I0110 18:56:45.678297 302873 layer_factory.hpp:74] Creating layer norm2
I0110 18:56:45.678050 251542 net.cpp:120] Setting up norm2
I0110 18:56:45.678216 251422 net.cpp:127] Top shape: 8 32 16 16 (65536)
I0110 18:56:45.678233 251422 layer_factory.hpp:74] Creating layer relu2
I0110 18:56:45.678246 251422 net.cpp:91] Creating Layer relu2
I0110 18:56:45.678248 251422 net.cpp:394] relu2 <- conv2
I0110 18:56:45.678252 251422 net.cpp:341] relu2 -> conv2 (in-place)
I0110 18:56:45.678256 251422 net.cpp:120] Setting up relu2
I0110 18:56:45.678259 251422 net.cpp:127] Top shape: 8 32 16 16 (65536)
I0110 18:56:45.678270 251422 layer_factory.hpp:74] Creating layer pool2
I0110 18:56:45.678277 251422 net.cpp:91] Creating Layer pool2
I0110 18:56:45.678279 251422 net.cpp:394] pool2 <- conv2
I0110 18:56:45.678283 251422 net.cpp:352] pool2 -> pool2
I0110 18:56:45.678359 281373 net.cpp:120] Setting up pool2
I0110 18:56:45.678362 281373 net.cpp:127] Top shape: 8 32 8 8 (16384)
I0110 18:56:45.678366 281373 layer_factory.hpp:74] Creating layer norm2
I0110 18:56:45.678370 281373 net.cpp:91] Creating Layer norm2
I0110 18:56:45.678377 251279 net.cpp:120] Setting up pool2
I0110 18:56:45.678381 251279 net.cpp:127] Top shape: 8 32 8 8 (16384)
I0110 18:56:45.678387 251279 layer_factory.hpp:74] Creating layer norm2
I0110 18:56:45.677783 251321 net.cpp:127] Top shape: 8 32 8 8 (16384)
I0110 18:56:45.677786 251321 layer_factory.hpp:74] Creating layer norm2
I0110 18:56:45.677790 251321 net.cpp:91] Creating Layer norm2
I0110 18:56:45.677793 251321 net.cpp:394] norm2 <- pool2
I0110 18:56:45.678246 251003 net.cpp:127] Top shape: 8 32 16 16 (65536)
I0110 18:56:45.678280 251003 layer_factory.hpp:74] Creating layer relu2
I0110 18:56:45.678326 281747 net.cpp:127] Top shape: 8 32 8 8 (16384)
I0110 18:56:45.678330 281747 layer_factory.hpp:74] Creating layer norm2
I0110 18:56:45.678336 281747 net.cpp:91] Creating Layer norm2
I0110 18:56:45.678339 281747 net.cpp:394] norm2 <- pool2
I0110 18:56:45.678319 251375 net.cpp:394] pool2 <- conv2
I0110 18:56:45.678323 251375 net.cpp:352] pool2 -> pool2
I0110 18:56:45.678328 251375 net.cpp:120] Setting up pool2
I0110 18:56:45.678303 302873 net.cpp:91] Creating Layer norm2
I0110 18:56:45.678306 302873 net.cpp:394] norm2 <- pool2
I0110 18:56:45.678309 302873 net.cpp:352] norm2 -> norm2
I0110 18:56:45.678313 302873 net.cpp:120] Setting up norm2
I0110 18:56:45.678063 251542 net.cpp:127] Top shape: 8 32 8 8 (16384)
I0110 18:56:45.678067 251542 layer_factory.hpp:74] Creating layer conv3
I0110 18:56:45.678071 251542 net.cpp:91] Creating Layer conv3
I0110 18:56:45.678287 251422 net.cpp:120] Setting up pool2
I0110 18:56:45.678293 251422 net.cpp:127] Top shape: 8 32 8 8 (16384)
I0110 18:56:45.678297 251422 layer_factory.hpp:74] Creating layer norm2
I0110 18:56:45.678303 251422 net.cpp:91] Creating Layer norm2
I0110 18:56:45.678305 251422 net.cpp:394] norm2 <- pool2
I0110 18:56:45.678308 251422 net.cpp:352] norm2 -> norm2
I0110 18:56:45.678313 251422 net.cpp:120] Setting up norm2
I0110 18:56:45.678374 281373 net.cpp:394] norm2 <- pool2
I0110 18:56:45.678376 281373 net.cpp:352] norm2 -> norm2
I0110 18:56:45.678380 281373 net.cpp:120] Setting up norm2
I0110 18:56:45.678392 251279 net.cpp:91] Creating Layer norm2
I0110 18:56:45.678395 251279 net.cpp:394] norm2 <- pool2
I0110 18:56:45.678398 251279 net.cpp:352] norm2 -> norm2
I0110 18:56:45.677798 251321 net.cpp:352] norm2 -> norm2
I0110 18:56:45.677803 251321 net.cpp:120] Setting up norm2
I0110 18:56:45.678287 251003 net.cpp:91] Creating Layer relu2
I0110 18:56:45.678290 251003 net.cpp:394] relu2 <- conv2
I0110 18:56:45.678294 251003 net.cpp:341] relu2 -> conv2 (in-place)
I0110 18:56:45.678298 251003 net.cpp:120] Setting up relu2
I0110 18:56:45.678302 251003 net.cpp:127] Top shape: 8 32 16 16 (65536)
I0110 18:56:45.678304 251003 layer_factory.hpp:74] Creating layer pool2
I0110 18:56:45.678309 251003 net.cpp:91] Creating Layer pool2
I0110 18:56:45.678311 251003 net.cpp:394] pool2 <- conv2
I0110 18:56:45.678342 281747 net.cpp:352] norm2 -> norm2
I0110 18:56:45.678345 281747 net.cpp:120] Setting up norm2
I0110 18:56:45.678331 251375 net.cpp:127] Top shape: 8 32 8 8 (16384)
I0110 18:56:45.678335 251375 layer_factory.hpp:74] Creating layer norm2
I0110 18:56:45.678342 251375 net.cpp:91] Creating Layer norm2
I0110 18:56:45.678344 251375 net.cpp:394] norm2 <- pool2
I0110 18:56:45.678326 302873 net.cpp:127] Top shape: 8 32 8 8 (16384)
I0110 18:56:45.678073 251542 net.cpp:394] conv3 <- norm2
I0110 18:56:45.678081 251542 net.cpp:352] conv3 -> conv3
I0110 18:56:45.678086 251542 net.cpp:120] Setting up conv3
I0110 18:56:45.678326 251422 net.cpp:127] Top shape: 8 32 8 8 (16384)
I0110 18:56:45.678333 251422 layer_factory.hpp:74] Creating layer conv3
I0110 18:56:45.678336 251422 net.cpp:91] Creating Layer conv3
I0110 18:56:45.678339 251422 net.cpp:394] conv3 <- norm2
I0110 18:56:45.678395 281373 net.cpp:127] Top shape: 8 32 8 8 (16384)
I0110 18:56:45.678402 281373 layer_factory.hpp:74] Creating layer conv3
I0110 18:56:45.678401 251279 net.cpp:120] Setting up norm2
I0110 18:56:45.677816 251321 net.cpp:127] Top shape: 8 32 8 8 (16384)
I0110 18:56:45.677820 251321 layer_factory.hpp:74] Creating layer conv3
I0110 18:56:45.678314 251003 net.cpp:352] pool2 -> pool2
I0110 18:56:45.678319 251003 net.cpp:120] Setting up pool2
I0110 18:56:45.678323 251003 net.cpp:127] Top shape: 8 32 8 8 (16384)
I0110 18:56:45.678326 251003 layer_factory.hpp:74] Creating layer norm2
I0110 18:56:45.678359 281747 net.cpp:127] Top shape: 8 32 8 8 (16384)
I0110 18:56:45.678364 281747 layer_factory.hpp:74] Creating layer conv3
I0110 18:56:45.678349 251375 net.cpp:352] norm2 -> norm2
I0110 18:56:45.678352 251375 net.cpp:120] Setting up norm2
I0110 18:56:45.678333 302873 layer_factory.hpp:74] Creating layer conv3
I0110 18:56:45.678336 302873 net.cpp:91] Creating Layer conv3
I0110 18:56:45.678339 302873 net.cpp:394] conv3 <- norm2
I0110 18:56:45.678342 302873 net.cpp:352] conv3 -> conv3
I0110 18:56:45.678344 251422 net.cpp:352] conv3 -> conv3
I0110 18:56:45.678349 251422 net.cpp:120] Setting up conv3
I0110 18:56:45.678408 281373 net.cpp:91] Creating Layer conv3
I0110 18:56:45.678411 281373 net.cpp:394] conv3 <- norm2
I0110 18:56:45.678416 281373 net.cpp:352] conv3 -> conv3
I0110 18:56:45.678416 251279 net.cpp:127] Top shape: 8 32 8 8 (16384)
I0110 18:56:45.678419 251279 layer_factory.hpp:74] Creating layer conv3
I0110 18:56:45.677826 251321 net.cpp:91] Creating Layer conv3
I0110 18:56:45.677829 251321 net.cpp:394] conv3 <- norm2
I0110 18:56:45.677834 251321 net.cpp:352] conv3 -> conv3
I0110 18:56:45.677837 251321 net.cpp:120] Setting up conv3
I0110 18:56:45.678333 251003 net.cpp:91] Creating Layer norm2
I0110 18:56:45.678336 251003 net.cpp:394] norm2 <- pool2
I0110 18:56:45.678339 251003 net.cpp:352] norm2 -> norm2
I0110 18:56:45.678369 281747 net.cpp:91] Creating Layer conv3
I0110 18:56:45.678370 281747 net.cpp:394] conv3 <- norm2
I0110 18:56:45.678375 281747 net.cpp:352] conv3 -> conv3
I0110 18:56:45.678366 251375 net.cpp:127] Top shape: 8 32 8 8 (16384)
I0110 18:56:45.678371 251375 layer_factory.hpp:74] Creating layer conv3
I0110 18:56:45.678349 302873 net.cpp:120] Setting up conv3
I0110 18:56:45.678421 281373 net.cpp:120] Setting up conv3
I0110 18:56:45.678424 251279 net.cpp:91] Creating Layer conv3
I0110 18:56:45.678426 251279 net.cpp:394] conv3 <- norm2
I0110 18:56:45.678432 251279 net.cpp:352] conv3 -> conv3
I0110 18:56:45.678436 251279 net.cpp:120] Setting up conv3
I0110 18:56:45.678344 251003 net.cpp:120] Setting up norm2
I0110 18:56:45.678380 281747 net.cpp:120] Setting up conv3
I0110 18:56:45.678376 251375 net.cpp:91] Creating Layer conv3
I0110 18:56:45.678380 251375 net.cpp:394] conv3 <- norm2
I0110 18:56:45.678385 251375 net.cpp:352] conv3 -> conv3
I0110 18:56:45.678359 251003 net.cpp:127] Top shape: 8 32 8 8 (16384)
I0110 18:56:45.678364 251003 layer_factory.hpp:74] Creating layer conv3
I0110 18:56:45.678390 251375 net.cpp:120] Setting up conv3
I0110 18:56:45.678369 251003 net.cpp:91] Creating Layer conv3
I0110 18:56:45.678371 251003 net.cpp:394] conv3 <- norm2
I0110 18:56:45.678376 251003 net.cpp:352] conv3 -> conv3
I0110 18:56:45.678381 251003 net.cpp:120] Setting up conv3
I0110 18:56:45.679723 303806 net.cpp:127] Top shape: 8 64 8 8 (32768)
I0110 18:56:45.679750 303806 layer_factory.hpp:74] Creating layer relu3
I0110 18:56:45.679756 303806 net.cpp:91] Creating Layer relu3
I0110 18:56:45.679759 303806 net.cpp:394] relu3 <- conv3
I0110 18:56:45.679764 303806 net.cpp:341] relu3 -> conv3 (in-place)
I0110 18:56:45.679767 303806 net.cpp:120] Setting up relu3
I0110 18:56:45.679770 303806 net.cpp:127] Top shape: 8 64 8 8 (32768)
I0110 18:56:45.679776 303806 layer_factory.hpp:74] Creating layer pool3
I0110 18:56:45.679780 303806 net.cpp:91] Creating Layer pool3
I0110 18:56:45.679782 303806 net.cpp:394] pool3 <- conv3
I0110 18:56:45.679807 303806 net.cpp:352] pool3 -> pool3
I0110 18:56:45.679812 303806 net.cpp:120] Setting up pool3
I0110 18:56:45.679828 303806 net.cpp:127] Top shape: 8 64 4 4 (8192)
I0110 18:56:45.679832 303806 layer_factory.hpp:74] Creating layer ip1
I0110 18:56:45.679839 303806 net.cpp:91] Creating Layer ip1
I0110 18:56:45.679842 303806 net.cpp:394] ip1 <- pool3
I0110 18:56:45.679846 303806 net.cpp:352] ip1 -> ip1
I0110 18:56:45.679852 303806 net.cpp:120] Setting up ip1
I0110 18:56:45.679901 281373 net.cpp:127] Top shape: 8 64 8 8 (32768)
I0110 18:56:45.679920 281373 layer_factory.hpp:74] Creating layer relu3
I0110 18:56:45.679926 281373 net.cpp:91] Creating Layer relu3
I0110 18:56:45.679929 281373 net.cpp:394] relu3 <- conv3
I0110 18:56:45.679821 302873 net.cpp:127] Top shape: 8 64 8 8 (32768)
I0110 18:56:45.679850 302873 layer_factory.hpp:74] Creating layer relu3
I0110 18:56:45.679857 302873 net.cpp:91] Creating Layer relu3
I0110 18:56:45.679934 281373 net.cpp:341] relu3 -> conv3 (in-place)
I0110 18:56:45.679937 281373 net.cpp:120] Setting up relu3
I0110 18:56:45.679940 281373 net.cpp:127] Top shape: 8 64 8 8 (32768)
I0110 18:56:45.679944 281373 layer_factory.hpp:74] Creating layer pool3
I0110 18:56:45.679859 302873 net.cpp:394] relu3 <- conv3
I0110 18:56:45.679863 302873 net.cpp:341] relu3 -> conv3 (in-place)
I0110 18:56:45.679867 302873 net.cpp:120] Setting up relu3
I0110 18:56:45.679870 302873 net.cpp:127] Top shape: 8 64 8 8 (32768)
I0110 18:56:45.679873 302873 layer_factory.hpp:74] Creating layer pool3
I0110 18:56:45.679879 302873 net.cpp:91] Creating Layer pool3
I0110 18:56:45.679947 281373 net.cpp:91] Creating Layer pool3
I0110 18:56:45.679307 251321 net.cpp:127] Top shape: 8 64 8 8 (32768)
I0110 18:56:45.679334 251321 layer_factory.hpp:74] Creating layer relu3
I0110 18:56:45.679340 251321 net.cpp:91] Creating Layer relu3
I0110 18:56:45.679343 251321 net.cpp:394] relu3 <- conv3
I0110 18:56:45.679882 302873 net.cpp:394] pool3 <- conv3
I0110 18:56:45.679896 302873 net.cpp:352] pool3 -> pool3
I0110 18:56:45.679949 281373 net.cpp:394] pool3 <- conv3
I0110 18:56:45.679966 281373 net.cpp:352] pool3 -> pool3
I0110 18:56:45.679349 251321 net.cpp:341] relu3 -> conv3 (in-place)
I0110 18:56:45.679353 251321 net.cpp:120] Setting up relu3
I0110 18:56:45.679357 251321 net.cpp:127] Top shape: 8 64 8 8 (32768)
I0110 18:56:45.679360 251321 layer_factory.hpp:74] Creating layer pool3
I0110 18:56:45.679364 251321 net.cpp:91] Creating Layer pool3
I0110 18:56:45.679901 302873 net.cpp:120] Setting up pool3
I0110 18:56:45.679905 302873 net.cpp:127] Top shape: 8 64 4 4 (8192)
I0110 18:56:45.679909 302873 layer_factory.hpp:74] Creating layer ip1
I0110 18:56:45.679970 281373 net.cpp:120] Setting up pool3
I0110 18:56:45.679975 281373 net.cpp:127] Top shape: 8 64 4 4 (8192)
I0110 18:56:45.679980 281373 layer_factory.hpp:74] Creating layer ip1
I0110 18:56:45.679366 251321 net.cpp:394] pool3 <- conv3
I0110 18:56:45.679383 251321 net.cpp:352] pool3 -> pool3
I0110 18:56:45.679388 251321 net.cpp:120] Setting up pool3
I0110 18:56:45.679914 302873 net.cpp:91] Creating Layer ip1
I0110 18:56:45.679916 302873 net.cpp:394] ip1 <- pool3
I0110 18:56:45.679924 302873 net.cpp:352] ip1 -> ip1
I0110 18:56:45.679986 281373 net.cpp:91] Creating Layer ip1
I0110 18:56:45.679989 281373 net.cpp:394] ip1 <- pool3
I0110 18:56:45.679994 281373 net.cpp:352] ip1 -> ip1
I0110 18:56:45.679391 251321 net.cpp:127] Top shape: 8 64 4 4 (8192)
I0110 18:56:45.679395 251321 layer_factory.hpp:74] Creating layer ip1
I0110 18:56:45.679400 251321 net.cpp:91] Creating Layer ip1
I0110 18:56:45.679935 302873 net.cpp:120] Setting up ip1
I0110 18:56:45.680001 281373 net.cpp:120] Setting up ip1
I0110 18:56:45.680091 251279 net.cpp:127] Top shape: 8 64 8 8 (32768)
I0110 18:56:45.679402 251321 net.cpp:394] ip1 <- pool3
I0110 18:56:45.679409 251321 net.cpp:352] ip1 -> ip1
I0110 18:56:45.680110 251279 layer_factory.hpp:74] Creating layer relu3
I0110 18:56:45.680117 251279 net.cpp:91] Creating Layer relu3
I0110 18:56:45.680120 251279 net.cpp:394] relu3 <- conv3
I0110 18:56:45.680124 251279 net.cpp:341] relu3 -> conv3 (in-place)
I0110 18:56:45.679414 251321 net.cpp:120] Setting up ip1
I0110 18:56:45.680038 281747 net.cpp:127] Top shape: 8 64 8 8 (32768)
I0110 18:56:45.680068 281747 layer_factory.hpp:74] Creating layer relu3
I0110 18:56:45.680074 281747 net.cpp:91] Creating Layer relu3
I0110 18:56:45.680022 251375 net.cpp:127] Top shape: 8 64 8 8 (32768)
I0110 18:56:45.680050 251375 layer_factory.hpp:74] Creating layer relu3
I0110 18:56:45.680057 251375 net.cpp:91] Creating Layer relu3
I0110 18:56:45.679750 251542 net.cpp:127] Top shape: 8 64 8 8 (32768)
I0110 18:56:45.679780 251542 layer_factory.hpp:74] Creating layer relu3
I0110 18:56:45.679785 251542 net.cpp:91] Creating Layer relu3
I0110 18:56:45.679788 251542 net.cpp:394] relu3 <- conv3
I0110 18:56:45.680129 251279 net.cpp:120] Setting up relu3
I0110 18:56:45.680131 251279 net.cpp:127] Top shape: 8 64 8 8 (32768)
I0110 18:56:45.680135 251279 layer_factory.hpp:74] Creating layer pool3
I0110 18:56:45.680078 281747 net.cpp:394] relu3 <- conv3
I0110 18:56:45.680081 281747 net.cpp:341] relu3 -> conv3 (in-place)
I0110 18:56:45.680085 281747 net.cpp:120] Setting up relu3
I0110 18:56:45.680088 281747 net.cpp:127] Top shape: 8 64 8 8 (32768)
I0110 18:56:45.680091 281747 layer_factory.hpp:74] Creating layer pool3
I0110 18:56:45.680095 281747 net.cpp:91] Creating Layer pool3
I0110 18:56:45.680059 251375 net.cpp:394] relu3 <- conv3
I0110 18:56:45.680063 251375 net.cpp:341] relu3 -> conv3 (in-place)
I0110 18:56:45.680068 251375 net.cpp:120] Setting up relu3
I0110 18:56:45.680070 251375 net.cpp:127] Top shape: 8 64 8 8 (32768)
I0110 18:56:45.680073 251375 layer_factory.hpp:74] Creating layer pool3
I0110 18:56:45.680078 251375 net.cpp:91] Creating Layer pool3
I0110 18:56:45.679791 251542 net.cpp:341] relu3 -> conv3 (in-place)
I0110 18:56:45.679796 251542 net.cpp:120] Setting up relu3
I0110 18:56:45.679798 251542 net.cpp:127] Top shape: 8 64 8 8 (32768)
I0110 18:56:45.679802 251542 layer_factory.hpp:74] Creating layer pool3
I0110 18:56:45.679807 251542 net.cpp:91] Creating Layer pool3
I0110 18:56:45.679988 251422 net.cpp:127] Top shape: 8 64 8 8 (32768)
I0110 18:56:45.680021 251422 layer_factory.hpp:74] Creating layer relu3
I0110 18:56:45.680027 251422 net.cpp:91] Creating Layer relu3
I0110 18:56:45.680029 251422 net.cpp:394] relu3 <- conv3
I0110 18:56:45.680044 251422 net.cpp:341] relu3 -> conv3 (in-place)
I0110 18:56:45.680048 251422 net.cpp:120] Setting up relu3
I0110 18:56:45.680138 251279 net.cpp:91] Creating Layer pool3
I0110 18:56:45.680141 251279 net.cpp:394] pool3 <- conv3
I0110 18:56:45.680011 251003 net.cpp:127] Top shape: 8 64 8 8 (32768)
I0110 18:56:45.680038 251003 layer_factory.hpp:74] Creating layer relu3
I0110 18:56:45.680044 251003 net.cpp:91] Creating Layer relu3
I0110 18:56:45.680047 251003 net.cpp:394] relu3 <- conv3
I0110 18:56:45.680097 281747 net.cpp:394] pool3 <- conv3
I0110 18:56:45.680111 281747 net.cpp:352] pool3 -> pool3
I0110 18:56:45.680116 281747 net.cpp:120] Setting up pool3
I0110 18:56:45.680080 251375 net.cpp:394] pool3 <- conv3
I0110 18:56:45.680094 251375 net.cpp:352] pool3 -> pool3
I0110 18:56:45.680099 251375 net.cpp:120] Setting up pool3
I0110 18:56:45.679811 251542 net.cpp:394] pool3 <- conv3
I0110 18:56:45.679823 251542 net.cpp:352] pool3 -> pool3
I0110 18:56:45.679828 251542 net.cpp:120] Setting up pool3
I0110 18:56:45.680052 251422 net.cpp:127] Top shape: 8 64 8 8 (32768)
I0110 18:56:45.680055 251422 layer_factory.hpp:74] Creating layer pool3
I0110 18:56:45.680059 251422 net.cpp:91] Creating Layer pool3
I0110 18:56:45.680061 251422 net.cpp:394] pool3 <- conv3
I0110 18:56:45.680079 251422 net.cpp:352] pool3 -> pool3
I0110 18:56:45.680088 251422 net.cpp:120] Setting up pool3
I0110 18:56:45.680093 251422 net.cpp:127] Top shape: 8 64 4 4 (8192)
I0110 18:56:45.680096 251422 layer_factory.hpp:74] Creating layer ip1
I0110 18:56:45.680168 251279 net.cpp:352] pool3 -> pool3
I0110 18:56:45.680173 251279 net.cpp:120] Setting up pool3
I0110 18:56:45.680063 251003 net.cpp:341] relu3 -> conv3 (in-place)
I0110 18:56:45.680068 251003 net.cpp:120] Setting up relu3
I0110 18:56:45.680070 251003 net.cpp:127] Top shape: 8 64 8 8 (32768)
I0110 18:56:45.680074 251003 layer_factory.hpp:74] Creating layer pool3
I0110 18:56:45.680078 251003 net.cpp:91] Creating Layer pool3
I0110 18:56:45.680119 281747 net.cpp:127] Top shape: 8 64 4 4 (8192)
I0110 18:56:45.680125 281747 layer_factory.hpp:74] Creating layer ip1
I0110 18:56:45.680102 251375 net.cpp:127] Top shape: 8 64 4 4 (8192)
I0110 18:56:45.680109 251375 layer_factory.hpp:74] Creating layer ip1
I0110 18:56:45.679832 251542 net.cpp:127] Top shape: 8 64 4 4 (8192)
I0110 18:56:45.679836 251542 layer_factory.hpp:74] Creating layer ip1
I0110 18:56:45.679842 251542 net.cpp:91] Creating Layer ip1
I0110 18:56:45.680101 251422 net.cpp:91] Creating Layer ip1
I0110 18:56:45.680104 251422 net.cpp:394] ip1 <- pool3
I0110 18:56:45.680110 251422 net.cpp:352] ip1 -> ip1
I0110 18:56:45.680177 251279 net.cpp:127] Top shape: 8 64 4 4 (8192)
I0110 18:56:45.680181 251279 layer_factory.hpp:74] Creating layer ip1
I0110 18:56:45.680079 251003 net.cpp:394] pool3 <- conv3
I0110 18:56:45.680094 251003 net.cpp:352] pool3 -> pool3
I0110 18:56:45.680099 251003 net.cpp:120] Setting up pool3
I0110 18:56:45.680130 281747 net.cpp:91] Creating Layer ip1
I0110 18:56:45.680133 281747 net.cpp:394] ip1 <- pool3
I0110 18:56:45.680136 281747 net.cpp:352] ip1 -> ip1
I0110 18:56:45.680114 251375 net.cpp:91] Creating Layer ip1
I0110 18:56:45.680116 251375 net.cpp:394] ip1 <- pool3
I0110 18:56:45.680122 251375 net.cpp:352] ip1 -> ip1
I0110 18:56:45.679846 251542 net.cpp:394] ip1 <- pool3
I0110 18:56:45.679849 251542 net.cpp:352] ip1 -> ip1
I0110 18:56:45.679855 251542 net.cpp:120] Setting up ip1
I0110 18:56:45.680116 251422 net.cpp:120] Setting up ip1
I0110 18:56:45.680186 251279 net.cpp:91] Creating Layer ip1
I0110 18:56:45.680188 251279 net.cpp:394] ip1 <- pool3
I0110 18:56:45.680194 251279 net.cpp:352] ip1 -> ip1
I0110 18:56:45.680102 251003 net.cpp:127] Top shape: 8 64 4 4 (8192)
I0110 18:56:45.680106 251003 layer_factory.hpp:74] Creating layer ip1
I0110 18:56:45.680142 281747 net.cpp:120] Setting up ip1
I0110 18:56:45.680129 251375 net.cpp:120] Setting up ip1
I0110 18:56:45.680200 251279 net.cpp:120] Setting up ip1
I0110 18:56:45.680114 251003 net.cpp:91] Creating Layer ip1
I0110 18:56:45.680116 251003 net.cpp:394] ip1 <- pool3
I0110 18:56:45.680120 251003 net.cpp:352] ip1 -> ip1
I0110 18:56:45.680125 251003 net.cpp:120] Setting up ip1
I0110 18:56:45.680335 303806 net.cpp:127] Top shape: 8 10 (80)
I0110 18:56:45.680349 303806 layer_factory.hpp:74] Creating layer loss
I0110 18:56:45.680356 303806 net.cpp:91] Creating Layer loss
I0110 18:56:45.680358 303806 net.cpp:394] loss <- ip1
I0110 18:56:45.680362 303806 net.cpp:394] loss <- label
I0110 18:56:45.680368 303806 net.cpp:352] loss -> loss
I0110 18:56:45.680374 303806 net.cpp:120] Setting up loss
I0110 18:56:45.680379 303806 layer_factory.hpp:74] Creating layer loss
…
I0110 18:56:45.680754 281747 net.cpp:461] Collecting Learning Rate and Weight Decay.
I0110 18:56:45.680769 281747 net.cpp:227] Network initialization done.
I0110 18:56:45.680771 281747 net.cpp:228] Memory required for data: 2883940
I0110 18:56:45.681041 303806 net.cpp:49] Initializing net from parameters: 
name: "CIFAR10_full"
state {
  phase: TEST
}
layer {
  name: "cifar"
  type: "Data"
  top: "data"
  top: "label"
  include {
    phase: TEST
  }
  transform_param {
    mean_file: "mean.binaryproto"
  }
  data_param {
    source: "cifar10_test_lmdb"
    batch_size: 128
    backend: LMDB
  }
}
layer {
  name: "conv1"
  type: "Convolution"
  bottom: "data"
  top: "conv1"
  param {
    lr_mult: 1
  }
  param {
    lr_mult: 2
  }
  convolution_param {
    num_output: 32
    pad: 2
    kernel_size: 5
    stride: 1
    weight_filler {
      type: "gaussian"
      std: 0.0001
    }
    bias_filler {
      type: "constant"
    }
  }
}
layer {
  name: "pool1"
  type: "Pooling"
  bottom: "conv1"
  top: "pool1"
  pooling_param {
    pool: MAX
    kernel_size: 3
    stride: 2
  }
}
layer {
  name: "relu1"
  type: "ReLU"
  bottom: "pool1"
  top: "pool1"
}
layer {
  name: "norm1"
  type: "LRN"
  bottom: "pool1"
  top: "norm1"
  lrn_param {
    local_size: 3
    alpha: 5e-05
    beta: 0.75
    norm_region: WITHIN_CHANNEL
  }
}
layer {
  name: "conv2"
  type: "Convolution"
  bottom: "norm1"
  top: "conv2"
  param {
    lr_mult: 1
  }
  param {
    lr_mult: 2
  }
  convolution_param {
    num_output: 32
    pad: 2
    kernel_size: 5
    stride: 1
    weight_filler {
      type: "gaussian"
      std: 0.01
    }
    bias_filler {
      type: "constant"
    }
  }
}
layer {
  name: "relu2"
  type: "ReLU"
  bottom: "conv2"
  top: "conv2"
}
layer {
  name: "pool2"
  type: "Pooling"
  bottom: "conv2"
  top: "pool2"
  pooling_param {
    pool: AVE
    kernel_size: 3
    stride: 2
  }
}
layer {
  name: "norm2"
  type: "LRN"
  bottom: "pool2"
  top: "norm2"
  lrn_param {
    local_size: 3
    alpha: 5e-05
    beta: 0.75
    norm_region: WITHIN_CHANNEL
  }
}
layer {
  name: "conv3"
  type: "Convolution"
  bottom: "norm2"
  top: "conv3"
  convolution_param {
    num_output: 64
    pad: 2
    kernel_size: 5
    stride: 1
    weight_filler {
      type: "gaussian"
      std: 0.01
    }
    bias_filler {
      type: "constant"
    }
  }
}
layer {
  name: "relu3"
  type: "ReLU"
  bottom: "conv3"
  top: "conv3"
}
layer {
  name: "pool3"
  type: "Pooling"
  bottom: "conv3"
  top: "pool3"
  pooling_param {
    pool: AVE
    kernel_size: 3
    stride: 2
  }
}
layer {
  name: "ip1"
  type: "InnerProduct"
  bottom: "pool3"
  top: "ip1"
  param {
    lr_mult: 1
    decay_mult: 250
  }
  param {
    lr_mult: 2
    decay_mult: 0
  }
  inner_product_param {
    num_output: 10
    weight_filler {
      type: "gaussian"
      std: 0.01
    }
    bias_filler {
      type: "constant"
    }
  }
}
layer {
  name: "accuracy"
  type: "Accuracy"
  bottom: "ip1"
  bottom: "label"
  top: "accuracy"
  include {
    phase: TEST
  }
}
layer {
  name: "loss"
  type: "SoftmaxWithLoss"
  bottom: "ip1"
  bottom: "label"
  top: "loss"
}
I0110 18:56:45.681072 302873 solver.cpp:158] Creating test net (#0) specified by net file: cifar10_full_train_test.prototxt
I0110 18:56:45.681100 302873 net.cpp:271] The NetState phase (1) differed from the phase (0) specified by a rule in layer cifar
I0110 18:56:45.681141 281373 solver.cpp:158] Creating test net (#0) specified by net file: cifar10_full_train_test.prototxt
I0110 18:56:45.680817 251279 net.cpp:228] Memory required for data: 2883940
I0110 18:56:45.680783 251011 mpi.cpp:91] Thread 2c2e388cc700 is used for scheduling.
I0110 18:56:45.680811 281756 mpi.cpp:91] Thread 2b996b28f700 is used for scheduling.
I0110 18:56:45.681182 281373 net.cpp:271] The NetState phase (1) differed from the phase (0) specified by a rule in layer cifar
I0110 18:56:45.680858 251288 mpi.cpp:91] Thread 2bd944b00700 is used for scheduling.
I0110 18:56:45.681246 303806 layer_factory.hpp:74] Creating layer cifar
I0110 18:56:45.681112 302873 net.cpp:49] Initializing net from parameters: 
name: "CIFAR10_full"
state {
  phase: TEST
}
layer {
  name: "cifar"
  type: "Data"
  top: "data"
  top: "label"
  include {
    phase: TEST
  }
  transform_param {
    mean_file: "mean.binaryproto"
  }
  data_param {
    source: "cifar10_test_lmdb"
    batch_size: 128
    backend: LMDB
  }
}
layer {
  name: "conv1"
  type: "Convolution"
  bottom: "data"
  top: "conv1"
  param {
    lr_mult: 1
  }
  param {
    lr_mult: 2
  }
  convolution_param {
    num_output: 32
    pad: 2
    kernel_size: 5
    stride: 1
    weight_filler {
      type: "gaussian"
      std: 0.0001
    }
    bias_filler {
      type: "constant"
    }
  }
}
layer {
  name: "pool1"
  type: "Pooling"
  bottom: "conv1"
  top: "pool1"
  pooling_param {
    pool: MAX
    kernel_size: 3
    stride: 2
  }
}
layer {
  name: "relu1"
  type: "ReLU"
  bottom: "pool1"
  top: "pool1"
}
layer {
  name: "norm1"
  type: "LRN"
  bottom: "pool1"
  top: "norm1"
  lrn_param {
    local_size: 3
    alpha: 5e-05
    beta: 0.75
    norm_region: WITHIN_CHANNEL
  }
}
layer {
  name: "conv2"
  type: "Convolution"
  bottom: "norm1"
  top: "conv2"
  param {
    lr_mult: 1
  }
  param {
    lr_mult: 2
  }
  convolution_param {
    num_output: 32
    pad: 2
    kernel_size: 5
    stride: 1
    weight_filler {
      type: "gaussian"
      std: 0.01
    }
    bias_filler {
      type: "constant"
    }
  }
}
layer {
  name: "relu2"
  type: "ReLU"
  bottom: "conv2"
  top: "conv2"
}
layer {
  name: "pool2"
  type: "Pooling"
  bottom: "conv2"
  top: "pool2"
  pooling_param {
    pool: AVE
    kernel_size: 3
    stride: 2
  }
}
layer {
  name: "norm2"
  type: "LRN"
  bottom: "pool2"
  top: "norm2"
  lrn_param {
    local_size: 3
    alpha: 5e-05
    beta: 0.75
    norm_region: WITHIN_CHANNEL
  }
}
layer {
  name: "conv3"
  type: "Convolution"
  bottom: "norm2"
  top: "conv3"
  convolution_param {
    num_output: 64
    pad: 2
    kernel_size: 5
    stride: 1
    weight_filler {
      type: "gaussian"
      std: 0.01
    }
    bias_filler {
      type: "constant"
    }
  }
}
layer {
  name: "relu3"
  type: "ReLU"
  bottom: "conv3"
  top: "conv3"
}
layer {
  name: "pool3"
  type: "Pooling"
  bottom: "conv3"
  top: "pool3"
  pooling_param {
    pool: AVE
    kernel_size: 3
    stride: 2
  }
}
layer {
  name: "ip1"
  type: "InnerProduct"
  bottom: "pool3"
  top: "ip1"
  param {
    lr_mult: 1
    decay_mult: 250
  }
  param {
    lr_mult: 2
    decay_mult: 0
  }
  inner_product_param {
    num_output: 10
    weight_filler {
      type: "gaussian"
      std: 0.01
    }
    bias_filler {
      type: "constant"
    }
  }
}
layer {
  name: "accuracy"
  type: "Accuracy"
  bottom: "ip1"
  bottom: "label"
  top: "accuracy"
  include {
    phase: TEST
  }
}
layer {
  name: "loss"
  type: "SoftmaxWithLoss"
  bottom: "ip1"
  bottom: "label"
  top: "loss"
}
I0110 18:56:45.681193 281373 net.cpp:49] Initializing net from parameters: 
name: "CIFAR10_full"
state {
  phase: TEST
}
layer {
  name: "cifar"
  type: "Data"
  top: "data"
  top: "label"
  include {
    phase: TEST
  }
  transform_param {
    mean_file: "mean.binaryproto"
  }
  data_param {
    source: "cifar10_test_lmdb"
    batch_size: 128
    backend: LMDB
  }
}
layer {
  name: "conv1"
  type: "Convolution"
  bottom: "data"
  top: "conv1"
  param {
    lr_mult: 1
  }
  param {
    lr_mult: 2
  }
  convolution_param {
    num_output: 32
    pad: 2
    kernel_size: 5
    stride: 1
    weight_filler {
      type: "gaussian"
      std: 0.0001
    }
    bias_filler {
      type: "constant"
    }
  }
}
layer {
  name: "pool1"
  type: "Pooling"
  bottom: "conv1"
  top: "pool1"
  pooling_param {
    pool: MAX
    kernel_size: 3
    stride: 2
  }
}
layer {
  name: "relu1"
  type: "ReLU"
  bottom: "pool1"
  top: "pool1"
}
layer {
  name: "norm1"
  type: "LRN"
  bottom: "pool1"
  top: "norm1"
  lrn_param {
    local_size: 3
    alpha: 5e-05
    beta: 0.75
    norm_region: WITHIN_CHANNEL
  }
}
layer {
  name: "conv2"
  type: "Convolution"
  bottom: "norm1"
  top: "conv2"
  param {
    lr_mult: 1
  }
  param {
    lr_mult: 2
  }
  convolution_param {
    num_output: 32
    pad: 2
    kernel_size: 5
    stride: 1
    weight_filler {
      type: "gaussian"
      std: 0.01
    }
    bias_filler {
      type: "constant"
    }
  }
}
layer {
  name: "relu2"
  type: "ReLU"
  bottom: "conv2"
  top: "conv2"
}
layer {
  name: "pool2"
  type: "Pooling"
  bottom: "conv2"
  top: "pool2"
  pooling_param {
    pool: AVE
    kernel_size: 3
    stride: 2
  }
}
layer {
  name: "norm2"
  type: "LRN"
  bottom: "pool2"
  top: "norm2"
  lrn_param {
    local_size: 3
    alpha: 5e-05
    beta: 0.75
    norm_region: WITHIN_CHANNEL
  }
}
layer {
  name: "conv3"
  type: "Convolution"
  bottom: "norm2"
  top: "conv3"
  convolution_param {
    num_output: 64
    pad: 2
    kernel_size: 5
    stride: 1
    weight_filler {
      type: "gaussian"
      std: 0.01
    }
    bias_filler {
      type: "constant"
    }
  }
}
layer {
  name: "relu3"
  type: "ReLU"
  bottom: "conv3"
  top: "conv3"
}
layer {
  name: "pool3"
  type: "Pooling"
  bottom: "conv3"
  top: "pool3"
  pooling_param {
    pool: AVE
    kernel_size: 3
    stride: 2
  }
}
layer {
  name: "ip1"
  type: "InnerProduct"
  bottom: "pool3"
  top: "ip1"
  param {
    lr_mult: 1
    decay_mult: 250
  }
  param {
    lr_mult: 2
    decay_mult: 0
  }
  inner_product_param {
    num_output: 10
    weight_filler {
      type: "gaussian"
      std: 0.01
    }
    bias_filler {
      type: "constant"
    }
  }
}
layer {
  name: "accuracy"
  type: "Accuracy"
  bottom: "ip1"
  bottom: "label"
  top: "accuracy"
  include {
    phase: TEST
  }
}
layer {
  name: "loss"
  type: "SoftmaxWithLoss"
  bottom: "ip1"
  bottom: "label"
  top: "loss"
}
I0110 18:56:45.681288 251279 solver.cpp:158] Creating test net (#0) specified by net file: cifar10_full_train_test.prototxt
I0110 18:56:45.680631 251321 solver.cpp:158] Creating test net (#0) specified by net file: cifar10_full_train_test.prototxt
I0110 18:56:45.680660 251321 net.cpp:271] The NetState phase (1) differed from the phase (0) specified by a rule in layer cifar
I0110 18:56:45.681257 303806 net.cpp:91] Creating Layer cifar
…
I0110 18:56:45.681191 251422 solver.cpp:158] Creating test net (#0) specified by net file: cifar10_full_train_test.prototxt
I0110 18:56:45.681387 281373 layer_factory.hpp:74] Creating layer cifar
I0110 18:56:45.680671 251321 net.cpp:49] Initializing net from parameters: 
name: "CIFAR10_full"
state {
  phase: TEST
}
layer {
  name: "cifar"
  type: "Data"
  top: "data"
  top: "label"
  include {
    phase: TEST
  }
  transform_param {
    mean_file: "mean.binaryproto"
  }
  data_param {
    source: "cifar10_test_lmdb"
    batch_size: 128
    backend: LMDB
  }
}
layer {
  name: "conv1"
  type: "Convolution"
  bottom: "data"
  top: "conv1"
  param {
    lr_mult: 1
  }
  param {
    lr_mult: 2
  }
  convolution_param {
    num_output: 32
    pad: 2
    kernel_size: 5
    stride: 1
    weight_filler {
      type: "gaussian"
      std: 0.0001
    }
    bias_filler {
      type: "constant"
    }
  }
}
layer {
  name: "pool1"
  type: "Pooling"
  bottom: "conv1"
  top: "pool1"
  pooling_param {
    pool: MAX
    kernel_size: 3
    stride: 2
  }
}
layer {
  name: "relu1"
  type: "ReLU"
  bottom: "pool1"
  top: "pool1"
}
layer {
  name: "norm1"
  type: "LRN"
  bottom: "pool1"
  top: "norm1"
  lrn_param {
    local_size: 3
    alpha: 5e-05
    beta: 0.75
    norm_region: WITHIN_CHANNEL
  }
}
layer {
  name: "conv2"
  type: "Convolution"
  bottom: "norm1"
  top: "conv2"
  param {
    lr_mult: 1
  }
  param {
    lr_mult: 2
  }
  convolution_param {
    num_output: 32
    pad: 2
    kernel_size: 5
    stride: 1
    weight_filler {
      type: "gaussian"
      std: 0.01
    }
    bias_filler {
      type: "constant"
    }
  }
}
layer {
  name: "relu2"
  type: "ReLU"
  bottom: "conv2"
  top: "conv2"
}
layer {
  name: "pool2"
  type: "Pooling"
  bottom: "conv2"
  top: "pool2"
  pooling_param {
    pool: AVE
    kernel_size: 3
    stride: 2
  }
}
layer {
  name: "norm2"
  type: "LRN"
  bottom: "pool2"
  top: "norm2"
  lrn_param {
    local_size: 3
    alpha: 5e-05
    beta: 0.75
    norm_region: WITHIN_CHANNEL
  }
}
layer {
  name: "conv3"
  type: "Convolution"
  bottom: "norm2"
  top: "conv3"
  convolution_param {
    num_output: 64
    pad: 2
    kernel_size: 5
    stride: 1
    weight_filler {
      type: "gaussian"
      std: 0.01
    }
    bias_filler {
      type: "constant"
    }
  }
}
layer {
  name: "relu3"
  type: "ReLU"
  bottom: "conv3"
  top: "conv3"
}
layer {
  name: "pool3"
  type: "Pooling"
  bottom: "conv3"
  top: "pool3"
  pooling_param {
    pool: AVE
    kernel_size: 3
    stride: 2
  }
}
layer {
  name: "ip1"
  type: "InnerProduct"
  bottom: "pool3"
  top: "ip1"
  param {
    lr_mult: 1
    decay_mult: 250
  }
  param {
    lr_mult: 2
    decay_mult: 0
  }
  inner_product_param {
    num_output: 10
    weight_filler {
      type: "gaussian"
      std: 0.01
    }
    bias_filler {
      type: "constant"
    }
  }
}
layer {
  name: "accuracy"
  type: "Accuracy"
  bottom: "ip1"
  bottom: "label"
  top: "accuracy"
  include {
    phase: TEST
  }
}
layer {
  name: "loss"
  type: "SoftmaxWithLoss"
  bottom: "ip1"
  bottom: "label"
  top: "loss"
}
I0110 18:56:45.681198 251003 solver.cpp:158] Creating test net (#0) specified by net file: cifar10_full_train_test.prototxt
I0110 18:56:45.681257 281747 solver.cpp:158] Creating test net (#0) specified by net file: cifar10_full_train_test.prototxt
I0110 18:56:45.681284 281747 net.cpp:271] The NetState phase (1) differed from the phase (0) specified by a rule in layer cifar
I0110 18:56:45.681308 302873 net.cpp:91] Creating Layer cifar
I0110 18:56:45.681311 302873 net.cpp:352] cifar -> data
I0110 18:56:45.681318 302873 net.cpp:352] cifar -> label
I0110 18:56:45.681323 302873 net.cpp:120] Setting up cifar
I0110 18:56:45.681231 251422 net.cpp:271] The NetState phase (1) differed from the phase (0) specified by a rule in layer cifar
I0110 18:56:45.681397 281373 net.cpp:91] Creating Layer cifar
I0110 18:56:45.681401 281373 net.cpp:352] cifar -> data
I0110 18:56:45.681408 281373 net.cpp:352] cifar -> label
I0110 18:56:45.681330 251279 net.cpp:49] Initializing net from parameters: 
name: "CIFAR10_full"
state {
  phase: TEST
}
layer {
  name: "cifar"
  type: "Data"
  top: "data"
  top: "label"
  include {
    phase: TEST
  }
  transform_param {
    mean_file: "mean.binaryproto"
  }
  data_param {
    source: "cifar10_test_lmdb"
    batch_size: 128
    backend: LMDB
  }
}
layer {
  name: "conv1"
  type: "Convolution"
  bottom: "data"
  top: "conv1"
  param {
    lr_mult: 1
  }
  param {
    lr_mult: 2
  }
  convolution_param {
    num_output: 32
    pad: 2
    kernel_size: 5
    stride: 1
    weight_filler {
      type: "gaussian"
      std: 0.0001
    }
    bias_filler {
      type: "constant"
    }
  }
}
layer {
  name: "pool1"
  type: "Pooling"
  bottom: "conv1"
  top: "pool1"
  pooling_param {
    pool: MAX
    kernel_size: 3
    stride: 2
  }
}
layer {
  name: "relu1"
  type: "ReLU"
  bottom: "pool1"
  top: "pool1"
}
layer {
  name: "norm1"
  type: "LRN"
  bottom: "pool1"
  top: "norm1"
  lrn_param {
    local_size: 3
    alpha: 5e-05
    beta: 0.75
    norm_region: WITHIN_CHANNEL
  }
}
layer {
  name: "conv2"
  type: "Convolution"
  bottom: "norm1"
  top: "conv2"
  param {
    lr_mult: 1
  }
  param {
    lr_mult: 2
  }
  convolution_param {
    num_output: 32
    pad: 2
    kernel_size: 5
    stride: 1
    weight_filler {
      type: "gaussian"
      std: 0.01
    }
    bias_filler {
      type: "constant"
    }
  }
}
layer {
  name: "relu2"
  type: "ReLU"
  bottom: "conv2"
  top: "conv2"
}
layer {
  name: "pool2"
  type: "Pooling"
  bottom: "conv2"
  top: "pool2"
  pooling_param {
    pool: AVE
    kernel_size: 3
    stride: 2
  }
}
layer {
  name: "norm2"
  type: "LRN"
  bottom: "pool2"
  top: "norm2"
  lrn_param {
    local_size: 3
    alpha: 5e-05
    beta: 0.75
    norm_region: WITHIN_CHANNEL
  }
}
layer {
  name: "conv3"
  type: "Convolution"
  bottom: "norm2"
  top: "conv3"
  convolution_param {
    num_output: 64
    pad: 2
    kernel_size: 5
    stride: 1
    weight_filler {
      type: "gaussian"
      std: 0.01
    }
    bias_filler {
      type: "constant"
    }
  }
}
layer {
  name: "relu3"
  type: "ReLU"
  bottom: "conv3"
  top: "conv3"
}
layer {
  name: "pool3"
  type: "Pooling"
  bottom: "conv3"
  top: "pool3"
  pooling_param {
    pool: AVE
    kernel_size: 3
    stride: 2
  }
}
layer {
  name: "ip1"
  type: "InnerProduct"
  bottom: "pool3"
  top: "ip1"
  param {
    lr_mult: 1
    decay_mult: 250
  }
  param {
    lr_mult: 2
    decay_mult: 0
  }
  inner_product_param {
    num_output: 10
    weight_filler {
      type: "gaussian"
      std: 0.01
    }
    bias_filler {
      type: "constant"
    }
  }
}
layer {
  name: "accuracy"
  type: "Accuracy"
  bottom: "ip1"
  bottom: "label"
  top: "accuracy"
  include {
    phase: TEST
  }
}
layer {
  name: "loss"
  type: "SoftmaxWithLoss"
  bottom: "ip1"
  bottom: "label"
  top: "loss"
}
I0110 18:56:45.681249 251003 net.cpp:271] The NetState phase (1) differed from the phase (0) specified by a rule in layer cifar
I0110 18:56:45.681264 251375 net.cpp:49] Initializing net from parameters: 
name: "CIFAR10_full"
state {
  phase: TEST
}
layer {
  name: "cifar"
  type: "Data"
  top: "data"
  top: "label"
  include {
    phase: TEST
  }
  transform_param {
    mean_file: "mean.binaryproto"
  }
  data_param {
    source: "cifar10_test_lmdb"
    batch_size: 128
    backend: LMDB
  }
}
layer {
  name: "conv1"
  type: "Convolution"
  bottom: "data"
  top: "conv1"
  param {
    lr_mult: 1
  }
  param {
    lr_mult: 2
  }
  convolution_param {
    num_output: 32
    pad: 2
    kernel_size: 5
    stride: 1
    weight_filler {
      type: "gaussian"
      std: 0.0001
    }
    bias_filler {
      type: "constant"
    }
  }
}
layer {
  name: "pool1"
  type: "Pooling"
  bottom: "conv1"
  top: "pool1"
  pooling_param {
    pool: MAX
    kernel_size: 3
    stride: 2
  }
}
layer {
  name: "relu1"
  type: "ReLU"
  bottom: "pool1"
  top: "pool1"
}
layer {
  name: "norm1"
  type: "LRN"
  bottom: "pool1"
  top: "norm1"
  lrn_param {
    local_size: 3
    alpha: 5e-05
    beta: 0.75
    norm_region: WITHIN_CHANNEL
  }
}
layer {
  name: "conv2"
  type: "Convolution"
  bottom: "norm1"
  top: "conv2"
  param {
    lr_mult: 1
  }
  param {
    lr_mult: 2
  }
  convolution_param {
    num_output: 32
    pad: 2
    kernel_size: 5
    stride: 1
    weight_filler {
      type: "gaussian"
      std: 0.01
    }
    bias_filler {
      type: "constant"
    }
  }
}
layer {
  name: "relu2"
  type: "ReLU"
  bottom: "conv2"
  top: "conv2"
}
layer {
  name: "pool2"
  type: "Pooling"
  bottom: "conv2"
  top: "pool2"
  pooling_param {
    pool: AVE
    kernel_size: 3
    stride: 2
  }
}
layer {
  name: "norm2"
  type: "LRN"
  bottom: "pool2"
  top: "norm2"
  lrn_param {
    local_size: 3
    alpha: 5e-05
    beta: 0.75
    norm_region: WITHIN_CHANNEL
  }
}
layer {
  name: "conv3"
  type: "Convolution"
  bottom: "norm2"
  top: "conv3"
  convolution_param {
    num_output: 64
    pad: 2
    kernel_size: 5
    stride: 1
    weight_filler {
      type: "gaussian"
      std: 0.01
    }
    bias_filler {
      type: "constant"
    }
  }
}
layer {
  name: "relu3"
  type: "ReLU"
  bottom: "conv3"
  top: "conv3"
}
layer {
  name: "pool3"
  type: "Pooling"
  bottom: "conv3"
  top: "pool3"
  pooling_param {
    pool: AVE
    kernel_size: 3
    stride: 2
  }
}
layer {
  name: "ip1"
  type: "InnerProduct"
  bottom: "pool3"
  top: "ip1"
  param {
    lr_mult: 1
    decay_mult: 250
  }
  param {
    lr_mult: 2
    decay_mult: 0
  }
  inner_product_param {
    num_output: 10
    weight_filler {
      type: "gaussian"
      std: 0.01
    }
    bias_filler {
      type: "constant"
    }
  }
}
layer {
  name: "accuracy"
  type: "Accuracy"
  bottom: "ip1"
  bottom: "label"
  top: "accuracy"
  include {
    phase: TEST
  }
}
layer {
  name: "loss"
  type: "SoftmaxWithLoss"
  bottom: "ip1"
  bottom: "label"
  top: "loss"
}
I0110 18:56:45.681413 281373 net.cpp:120] Setting up cifar
I0110 18:56:45.681295 281747 net.cpp:49] Initializing net from parameters: 
name: "CIFAR10_full"
state {
  phase: TEST
}
layer {
  name: "cifar"
  type: "Data"
  top: "data"
  top: "label"
  include {
    phase: TEST
  }
  transform_param {
    mean_file: "mean.binaryproto"
  }
  data_param {
    source: "cifar10_test_lmdb"
    batch_size: 128
    backend: LMDB
  }
}
layer {
  name: "conv1"
  type: "Convolution"
  bottom: "data"
  top: "conv1"
  param {
    lr_mult: 1
  }
  param {
    lr_mult: 2
  }
  convolution_param {
    num_output: 32
    pad: 2
    kernel_size: 5
    stride: 1
    weight_filler {
      type: "gaussian"
      std: 0.0001
    }
    bias_filler {
      type: "constant"
    }
  }
}
layer {
  name: "pool1"
  type: "Pooling"
  bottom: "conv1"
  top: "pool1"
  pooling_param {
    pool: MAX
    kernel_size: 3
    stride: 2
  }
}
layer {
  name: "relu1"
  type: "ReLU"
  bottom: "pool1"
  top: "pool1"
}
layer {
  name: "norm1"
  type: "LRN"
  bottom: "pool1"
  top: "norm1"
  lrn_param {
    local_size: 3
    alpha: 5e-05
    beta: 0.75
    norm_region: WITHIN_CHANNEL
  }
}
layer {
  name: "conv2"
  type: "Convolution"
  bottom: "norm1"
  top: "conv2"
  param {
    lr_mult: 1
  }
  param {
    lr_mult: 2
  }
  convolution_param {
    num_output: 32
    pad: 2
    kernel_size: 5
    stride: 1
    weight_filler {
      type: "gaussian"
      std: 0.01
    }
    bias_filler {
      type: "constant"
    }
  }
}
layer {
  name: "relu2"
  type: "ReLU"
  bottom: "conv2"
  top: "conv2"
}
layer {
  name: "pool2"
  type: "Pooling"
  bottom: "conv2"
  top: "pool2"
  pooling_param {
    pool: AVE
    kernel_size: 3
    stride: 2
  }
}
layer {
  name: "norm2"
  type: "LRN"
  bottom: "pool2"
  top: "norm2"
  lrn_param {
    local_size: 3
    alpha: 5e-05
    beta: 0.75
    norm_region: WITHIN_CHANNEL
  }
}
layer {
  name: "conv3"
  type: "Convolution"
  bottom: "norm2"
  top: "conv3"
  convolution_param {
    num_output: 64
    pad: 2
    kernel_size: 5
    stride: 1
    weight_filler {
      type: "gaussian"
      std: 0.01
    }
    bias_filler {
      type: "constant"
    }
  }
}
layer {
  name: "relu3"
  type: "ReLU"
  bottom: "conv3"
  top: "conv3"
}
layer {
  name: "pool3"
  type: "Pooling"
  bottom: "conv3"
  top: "pool3"
  pooling_param {
    pool: AVE
    kernel_size: 3
    stride: 2
  }
}
layer {
  name: "ip1"
  type: "InnerProduct"
  bottom: "pool3"
  top: "ip1"
  param {
    lr_mult: 1
    decay_mult: 250
  }
  param {
    lr_mult: 2
    decay_mult: 0
  }
  inner_product_param {
    num_output: 10
    weight_filler {
      type: "gaussian"
      std: 0.01
    }
    bias_filler {
      type: "constant"
    }
  }
}
layer {
  name: "accuracy"
  type: "Accuracy"
  bottom: "ip1"
  bottom: "label"
  top: "accuracy"
  include {
    phase: TEST
  }
}
layer {
  name: "loss"
  type: "SoftmaxWithLoss"
  bottom: "ip1"
  bottom: "label"
  top: "loss"
}
I0110 18:56:45.681243 251422 net.cpp:49] Initializing net from parameters: 
name: "CIFAR10_full"
state {
  phase: TEST
}
layer {
  name: "cifar"
  type: "Data"
  top: "data"
  top: "label"
  include {
    phase: TEST
  }
  transform_param {
    mean_file: "mean.binaryproto"
  }
  data_param {
    source: "cifar10_test_lmdb"
    batch_size: 128
    backend: LMDB
  }
}
layer {
  name: "conv1"
  type: "Convolution"
  bottom: "data"
  top: "conv1"
  param {
    lr_mult: 1
  }
  param {
    lr_mult: 2
  }
  convolution_param {
    num_output: 32
    pad: 2
    kernel_size: 5
    stride: 1
    weight_filler {
      type: "gaussian"
      std: 0.0001
    }
    bias_filler {
      type: "constant"
    }
  }
}
layer {
  name: "pool1"
  type: "Pooling"
  bottom: "conv1"
  top: "pool1"
  pooling_param {
    pool: MAX
    kernel_size: 3
    stride: 2
  }
}
layer {
  name: "relu1"
  type: "ReLU"
  bottom: "pool1"
  top: "pool1"
}
layer {
  name: "norm1"
  type: "LRN"
  bottom: "pool1"
  top: "norm1"
  lrn_param {
    local_size: 3
    alpha: 5e-05
    beta: 0.75
    norm_region: WITHIN_CHANNEL
  }
}
layer {
  name: "conv2"
  type: "Convolution"
  bottom: "norm1"
  top: "conv2"
  param {
    lr_mult: 1
  }
  param {
    lr_mult: 2
  }
  convolution_param {
    num_output: 32
    pad: 2
    kernel_size: 5
    stride: 1
    weight_filler {
      type: "gaussian"
      std: 0.01
    }
    bias_filler {
      type: "constant"
    }
  }
}
layer {
  name: "relu2"
  type: "ReLU"
  bottom: "conv2"
  top: "conv2"
}
layer {
  name: "pool2"
  type: "Pooling"
  bottom: "conv2"
  top: "pool2"
  pooling_param {
    pool: AVE
    kernel_size: 3
    stride: 2
  }
}
layer {
  name: "norm2"
  type: "LRN"
  bottom: "pool2"
  top: "norm2"
  lrn_param {
    local_size: 3
    alpha: 5e-05
    beta: 0.75
    norm_region: WITHIN_CHANNEL
  }
}
layer {
  name: "conv3"
  type: "Convolution"
  bottom: "norm2"
  top: "conv3"
  convolution_param {
    num_output: 64
    pad: 2
    kernel_size: 5
    stride: 1
    weight_filler {
      type: "gaussian"
      std: 0.01
    }
    bias_filler {
      type: "constant"
    }
  }
}
layer {
  name: "relu3"
  type: "ReLU"
  bottom: "conv3"
  top: "conv3"
}
layer {
  name: "pool3"
  type: "Pooling"
  bottom: "conv3"
  top: "pool3"
  pooling_param {
    pool: AVE
    kernel_size: 3
    stride: 2
  }
}
layer {
  name: "ip1"
  type: "InnerProduct"
  bottom: "pool3"
  top: "ip1"
  param {
    lr_mult: 1
    decay_mult: 250
  }
  param {
    lr_mult: 2
    decay_mult: 0
  }
  inner_product_param {
    num_output: 10
    weight_filler {
      type: "gaussian"
      std: 0.01
    }
    bias_filler {
      type: "constant"
    }
  }
}
layer {
  name: "accuracy"
  type: "Accuracy"
  bottom: "ip1"
  bottom: "label"
  top: "accuracy"
  include {
    phase: TEST
  }
}
layer {
  name: "loss"
  type: "SoftmaxWithLoss"
  bottom: "ip1"
  bottom: "label"
  top: "loss"
}
I0110 18:56:45.680866 251321 layer_factory.hpp:74] Creating layer cifar
I0110 18:56:45.681260 251003 net.cpp:49] Initializing net from parameters: 
name: "CIFAR10_full"
state {
  phase: TEST
}
layer {
  name: "cifar"
  type: "Data"
  top: "data"
  top: "label"
  include {
    phase: TEST
  }
  transform_param {
    mean_file: "mean.binaryproto"
  }
  data_param {
    source: "cifar10_test_lmdb"
    batch_size: 128
    backend: LMDB
  }
}
layer {
  name: "conv1"
  type: "Convolution"
  bottom: "data"
  top: "conv1"
  param {
    lr_mult: 1
  }
  param {
    lr_mult: 2
  }
  convolution_param {
    num_output: 32
    pad: 2
    kernel_size: 5
    stride: 1
    weight_filler {
      type: "gaussian"
      std: 0.0001
    }
    bias_filler {
      type: "constant"
    }
  }
}
layer {
  name: "pool1"
  type: "Pooling"
  bottom: "conv1"
  top: "pool1"
  pooling_param {
    pool: MAX
    kernel_size: 3
    stride: 2
  }
}
layer {
  name: "relu1"
  type: "ReLU"
  bottom: "pool1"
  top: "pool1"
}
layer {
  name: "norm1"
  type: "LRN"
  bottom: "pool1"
  top: "norm1"
  lrn_param {
    local_size: 3
    alpha: 5e-05
    beta: 0.75
    norm_region: WITHIN_CHANNEL
  }
}
layer {
  name: "conv2"
  type: "Convolution"
  bottom: "norm1"
  top: "conv2"
  param {
    lr_mult: 1
  }
  param {
    lr_mult: 2
  }
  convolution_param {
    num_output: 32
    pad: 2
    kernel_size: 5
    stride: 1
    weight_filler {
      type: "gaussian"
      std: 0.01
    }
    bias_filler {
      type: "constant"
    }
  }
}
layer {
  name: "relu2"
  type: "ReLU"
  bottom: "conv2"
  top: "conv2"
}
layer {
  name: "pool2"
  type: "Pooling"
  bottom: "conv2"
  top: "pool2"
  pooling_param {
    pool: AVE
    kernel_size: 3
    stride: 2
  }
}
layer {
  name: "norm2"
  type: "LRN"
  bottom: "pool2"
  top: "norm2"
  lrn_param {
    local_size: 3
    alpha: 5e-05
    beta: 0.75
    norm_region: WITHIN_CHANNEL
  }
}
layer {
  name: "conv3"
  type: "Convolution"
  bottom: "norm2"
  top: "conv3"
  convolution_param {
    num_output: 64
    pad: 2
    kernel_size: 5
    stride: 1
    weight_filler {
      type: "gaussian"
      std: 0.01
    }
    bias_filler {
      type: "constant"
    }
  }
}
layer {
  name: "relu3"
  type: "ReLU"
  bottom: "conv3"
  top: "conv3"
}
layer {
  name: "pool3"
  type: "Pooling"
  bottom: "conv3"
  top: "pool3"
  pooling_param {
    pool: AVE
    kernel_size: 3
    stride: 2
  }
}
layer {
  name: "ip1"
  type: "InnerProduct"
  bottom: "pool3"
  top: "ip1"
  param {
    lr_mult: 1
    decay_mult: 250
  }
  param {
    lr_mult: 2
    decay_mult: 0
  }
  inner_product_param {
    num_output: 10
    weight_filler {
      type: "gaussian"
      std: 0.01
    }
    bias_filler {
      type: "constant"
    }
  }
}
layer {
  name: "accuracy"
  type: "Accuracy"
  bottom: "ip1"
  bottom: "label"
  top: "accuracy"
  include {
    phase: TEST
  }
}
layer {
  name: "loss"
  type: "SoftmaxWithLoss"
  bottom: "ip1"
  bottom: "label"
  top: "loss"
}
I0110 18:56:45.681529 251279 layer_factory.hpp:74] Creating layer cifar
I0110 18:56:45.680879 251321 net.cpp:91] Creating Layer cifar
I0110 18:56:45.680882 251321 net.cpp:352] cifar -> data
I0110 18:56:45.681462 251003 layer_factory.hpp:74] Creating layer cifar
I0110 18:56:45.681490 281747 layer_factory.hpp:74] Creating layer cifar
I0110 18:56:45.681463 251375 layer_factory.hpp:74] Creating layer cifar
I0110 18:56:45.681015 251542 net.cpp:49] Initializing net from parameters: 
name: "CIFAR10_full"
state {
  phase: TEST
}
layer {
  name: "cifar"
  type: "Data"
  top: "data"
  top: "label"
  include {
    phase: TEST
  }
  transform_param {
    mean_file: "mean.binaryproto"
  }
  data_param {
    source: "cifar10_test_lmdb"
    batch_size: 128
    backend: LMDB
  }
}
layer {
  name: "conv1"
  type: "Convolution"
  bottom: "data"
  top: "conv1"
  param {
    lr_mult: 1
  }
  param {
    lr_mult: 2
  }
  convolution_param {
    num_output: 32
    pad: 2
    kernel_size: 5
    stride: 1
    weight_filler {
      type: "gaussian"
      std: 0.0001
    }
    bias_filler {
      type: "constant"
    }
  }
}
layer {
  name: "pool1"
  type: "Pooling"
  bottom: "conv1"
  top: "pool1"
  pooling_param {
    pool: MAX
    kernel_size: 3
    stride: 2
  }
}
layer {
  name: "relu1"
  type: "ReLU"
  bottom: "pool1"
  top: "pool1"
}
layer {
  name: "norm1"
  type: "LRN"
  bottom: "pool1"
  top: "norm1"
  lrn_param {
    local_size: 3
    alpha: 5e-05
    beta: 0.75
    norm_region: WITHIN_CHANNEL
  }
}
layer {
  name: "conv2"
  type: "Convolution"
  bottom: "norm1"
  top: "conv2"
  param {
    lr_mult: 1
  }
  param {
    lr_mult: 2
  }
  convolution_param {
    num_output: 32
    pad: 2
    kernel_size: 5
    stride: 1
    weight_filler {
      type: "gaussian"
      std: 0.01
    }
    bias_filler {
      type: "constant"
    }
  }
}
layer {
  name: "relu2"
  type: "ReLU"
  bottom: "conv2"
  top: "conv2"
}
layer {
  name: "pool2"
  type: "Pooling"
  bottom: "conv2"
  top: "pool2"
  pooling_param {
    pool: AVE
    kernel_size: 3
    stride: 2
  }
}
layer {
  name: "norm2"
  type: "LRN"
  bottom: "pool2"
  top: "norm2"
  lrn_param {
    local_size: 3
    alpha: 5e-05
    beta: 0.75
    norm_region: WITHIN_CHANNEL
  }
}
layer {
  name: "conv3"
  type: "Convolution"
  bottom: "norm2"
  top: "conv3"
  convolution_param {
    num_output: 64
    pad: 2
    kernel_size: 5
    stride: 1
    weight_filler {
      type: "gaussian"
      std: 0.01
    }
    bias_filler {
      type: "constant"
    }
  }
}
layer {
  name: "relu3"
  type: "ReLU"
  bottom: "conv3"
  top: "conv3"
}
layer {
  name: "pool3"
  type: "Pooling"
  bottom: "conv3"
  top: "pool3"
  pooling_param {
    pool: AVE
    kernel_size: 3
    stride: 2
  }
}
layer {
  name: "ip1"
  type: "InnerProduct"
  bottom: "pool3"
  top: "ip1"
  param {
    lr_mult: 1
    decay_mult: 250
  }
  param {
    lr_mult: 2
    decay_mult: 0
  }
  inner_product_param {
    num_output: 10
    weight_filler {
      type: "gaussian"
      std: 0.01
    }
    bias_filler {
      type: "constant"
    }
  }
}
layer {
  name: "accuracy"
  type: "Accuracy"
  bottom: "ip1"
  bottom: "label"
  top: "accuracy"
  include {
    phase: TEST
  }
}
layer {
  name: "loss"
  type: "SoftmaxWithLoss"
  bottom: "ip1"
  bottom: "label"
  top: "loss"
}
I0110 18:56:45.681444 251422 layer_factory.hpp:74] Creating layer cifar
I0110 18:56:45.681540 251279 net.cpp:91] Creating Layer cifar
I0110 18:56:45.681543 251279 net.cpp:352] cifar -> data
I0110 18:56:45.681550 251279 net.cpp:352] cifar -> label
I0110 18:56:45.680889 251321 net.cpp:352] cifar -> label
I0110 18:56:45.680894 251321 net.cpp:120] Setting up cifar
I0110 18:56:45.681473 251003 net.cpp:91] Creating Layer cifar
…
I0110 18:56:45.683310 281373 db.cpp:34] Opened lmdb cifar10_test_lmdb
I0110 18:56:45.683248 302873 db.cpp:34] Opened lmdb cifar10_test_lmdb
I0110 18:56:45.683408 251279 db.cpp:34] Opened lmdb cifar10_test_lmdb
I0110 18:56:45.683547 251321 db.cpp:34] Opened lmdb cifar10_test_lmdb
I0110 18:56:45.684026 251542 db.cpp:34] Opened lmdb cifar10_test_lmdb
I0110 18:56:45.684340 251375 db.cpp:34] Opened lmdb cifar10_test_lmdb
I0110 18:56:45.684676 303806 data_layer.cpp:72] output data size: 8,3,32,32
I0110 18:56:45.684689 303806 data_transformer.cpp:22] Loading mean file from: mean.binaryproto
I0110 18:56:45.684857 303806 net.cpp:127] Top shape: 8 3 32 32 (24576)
I0110 18:56:45.684886 303806 net.cpp:127] Top shape: 8 (8)
I0110 18:56:45.684885 281373 data_layer.cpp:72] output data size: 8,3,32,32
I0110 18:56:45.684897 281373 data_transformer.cpp:22] Loading mean file from: mean.binaryproto
I0110 18:56:45.684906 303806 layer_factory.hpp:74] Creating layer label_cifar_1_split
I0110 18:56:45.684916 303806 net.cpp:91] Creating Layer label_cifar_1_split
I0110 18:56:45.684831 302873 data_layer.cpp:72] output data size: 8,3,32,32
I0110 18:56:45.684844 302873 data_transformer.cpp:22] Loading mean file from: mean.binaryproto
I0110 18:56:45.684923 303806 net.cpp:394] label_cifar_1_split <- label
I0110 18:56:45.684938 303806 net.cpp:352] label_cifar_1_split -> label_cifar_1_split_0
I0110 18:56:45.684948 303806 net.cpp:352] label_cifar_1_split -> label_cifar_1_split_1
I0110 18:56:45.684955 303806 net.cpp:120] Setting up label_cifar_1_split
I0110 18:56:45.684967 303806 net.cpp:127] Top shape: 8 (8)
I0110 18:56:45.685055 281373 net.cpp:127] Top shape: 8 3 32 32 (24576)
I0110 18:56:45.684973 303806 net.cpp:127] Top shape: 8 (8)
I0110 18:56:45.684986 303806 layer_factory.hpp:74] Creating layer conv1
I0110 18:56:45.685075 281373 net.cpp:127] Top shape: 8 (8)
I0110 18:56:45.685084 281373 layer_factory.hpp:74] Creating layer label_cifar_1_split
I0110 18:56:45.684999 303806 net.cpp:91] Creating Layer conv1
I0110 18:56:45.685008 303806 net.cpp:394] conv1 <- data
I0110 18:56:45.685015 303806 net.cpp:352] conv1 -> conv1
I0110 18:56:45.685024 303806 net.cpp:120] Setting up conv1
I0110 18:56:45.685093 281373 net.cpp:91] Creating Layer label_cifar_1_split
I0110 18:56:45.685099 281373 net.cpp:394] label_cifar_1_split <- label
I0110 18:56:45.685111 281373 net.cpp:352] label_cifar_1_split -> label_cifar_1_split_0
I0110 18:56:45.685120 281373 net.cpp:352] label_cifar_1_split -> label_cifar_1_split_1
I0110 18:56:45.685128 281373 net.cpp:120] Setting up label_cifar_1_split
I0110 18:56:45.685134 281373 net.cpp:127] Top shape: 8 (8)
I0110 18:56:45.685010 302873 net.cpp:127] Top shape: 8 3 32 32 (24576)
I0110 18:56:45.685142 281373 net.cpp:127] Top shape: 8 (8)
I0110 18:56:45.685150 281373 layer_factory.hpp:74] Creating layer conv1
I0110 18:56:45.685160 281373 net.cpp:91] Creating Layer conv1
I0110 18:56:45.685039 302873 net.cpp:127] Top shape: 8 (8)
I0110 18:56:45.685048 302873 layer_factory.hpp:74] Creating layer label_cifar_1_split
I0110 18:56:45.685076 302873 net.cpp:91] Creating Layer label_cifar_1_split
I0110 18:56:45.685165 281373 net.cpp:394] conv1 <- data
I0110 18:56:45.685175 281373 net.cpp:352] conv1 -> conv1
I0110 18:56:45.685081 302873 net.cpp:394] label_cifar_1_split <- label
I0110 18:56:45.685088 302873 net.cpp:352] label_cifar_1_split -> label_cifar_1_split_0
I0110 18:56:45.685184 281373 net.cpp:120] Setting up conv1
I0110 18:56:45.684564 251321 data_layer.cpp:72] output data size: 8,3,32,32
I0110 18:56:45.684581 251321 data_transformer.cpp:22] Loading mean file from: mean.binaryproto
I0110 18:56:45.685097 302873 net.cpp:352] label_cifar_1_split -> label_cifar_1_split_1
I0110 18:56:45.685119 251279 data_layer.cpp:72] output data size: 8,3,32,32
I0110 18:56:45.685147 251279 data_transformer.cpp:22] Loading mean file from: mean.binaryproto
I0110 18:56:45.685104 302873 net.cpp:120] Setting up label_cifar_1_split
I0110 18:56:45.685111 302873 net.cpp:127] Top shape: 8 (8)
I0110 18:56:45.685117 302873 net.cpp:127] Top shape: 8 (8)
I0110 18:56:45.685127 302873 layer_factory.hpp:74] Creating layer conv1
I0110 18:56:45.684875 251542 data_layer.cpp:72] output data size: 8,3,32,32
I0110 18:56:45.684907 251542 data_transformer.cpp:22] Loading mean file from: mean.binaryproto
I0110 18:56:45.685125 251422 db.cpp:34] Opened lmdb cifar10_test_lmdb
I0110 18:56:45.685179 251003 db.cpp:34] Opened lmdb cifar10_test_lmdb
I0110 18:56:45.685138 302873 net.cpp:91] Creating Layer conv1
I0110 18:56:45.684743 251321 net.cpp:127] Top shape: 8 3 32 32 (24576)
I0110 18:56:45.685273 303806 net.cpp:127] Top shape: 8 32 32 32 (262144)
I0110 18:56:45.685149 302873 net.cpp:394] conv1 <- data
I0110 18:56:45.685158 302873 net.cpp:352] conv1 -> conv1
I0110 18:56:45.685294 303806 layer_factory.hpp:74] Creating layer pool1
I0110 18:56:45.685302 303806 net.cpp:91] Creating Layer pool1
I0110 18:56:45.685166 302873 net.cpp:120] Setting up conv1
I0110 18:56:45.685068 251542 net.cpp:127] Top shape: 8 3 32 32 (24576)
I0110 18:56:45.685374 251279 net.cpp:127] Top shape: 8 3 32 32 (24576)
I0110 18:56:45.684773 251321 net.cpp:127] Top shape: 8 (8)
I0110 18:56:45.685305 303806 net.cpp:394] pool1 <- conv1
I0110 18:56:45.685310 303806 net.cpp:352] pool1 -> pool1
I0110 18:56:45.685315 303806 net.cpp:120] Setting up pool1
I0110 18:56:45.685319 303806 net.cpp:127] Top shape: 8 32 16 16 (65536)
I0110 18:56:45.685402 251279 net.cpp:127] Top shape: 8 (8)
I0110 18:56:45.685413 251279 layer_factory.hpp:74] Creating layer label_cifar_1_split
I0110 18:56:45.685323 303806 layer_factory.hpp:74] Creating layer relu1
I0110 18:56:45.685328 303806 net.cpp:91] Creating Layer relu1
I0110 18:56:45.685330 303806 net.cpp:394] relu1 <- pool1
I0110 18:56:45.685333 303806 net.cpp:341] relu1 -> pool1 (in-place)
I0110 18:56:45.685338 303806 net.cpp:120] Setting up relu1
I0110 18:56:45.685111 251542 net.cpp:127] Top shape: 8 (8)
I0110 18:56:45.685339 303806 net.cpp:127] Top shape: 8 32 16 16 (65536)
I0110 18:56:45.685343 303806 layer_factory.hpp:74] Creating layer norm1
I0110 18:56:45.685122 251542 layer_factory.hpp:74] Creating layer label_cifar_1_split
I0110 18:56:45.685132 251542 net.cpp:91] Creating Layer label_cifar_1_split
I0110 18:56:45.685358 303806 net.cpp:91] Creating Layer norm1
I0110 18:56:45.685360 303806 net.cpp:394] norm1 <- pool1
I0110 18:56:45.685364 303806 net.cpp:352] norm1 -> norm1
I0110 18:56:45.685369 303806 net.cpp:120] Setting up norm1
I0110 18:56:45.685381 303806 net.cpp:127] Top shape: 8 32 16 16 (65536)
I0110 18:56:45.685386 303806 layer_factory.hpp:74] Creating layer conv2
I0110 18:56:45.685427 251279 net.cpp:91] Creating Layer label_cifar_1_split
I0110 18:56:45.684788 251321 layer_factory.hpp:74] Creating layer label_cifar_1_split
I0110 18:56:45.684805 251321 net.cpp:91] Creating Layer label_cifar_1_split
I0110 18:56:45.685390 303806 net.cpp:91] Creating Layer conv2
I0110 18:56:45.685394 303806 net.cpp:394] conv2 <- norm1
I0110 18:56:45.685397 303806 net.cpp:352] conv2 -> conv2
I0110 18:56:45.685401 303806 net.cpp:120] Setting up conv2
I0110 18:56:45.685137 251542 net.cpp:394] label_cifar_1_split <- label
I0110 18:56:45.685145 251542 net.cpp:352] label_cifar_1_split -> label_cifar_1_split_0
I0110 18:56:45.685432 251279 net.cpp:394] label_cifar_1_split <- label
I0110 18:56:45.685446 251279 net.cpp:352] label_cifar_1_split -> label_cifar_1_split_0
I0110 18:56:45.684809 251321 net.cpp:394] label_cifar_1_split <- label
I0110 18:56:45.684831 251321 net.cpp:352] label_cifar_1_split -> label_cifar_1_split_0
I0110 18:56:45.685155 251542 net.cpp:352] label_cifar_1_split -> label_cifar_1_split_1
I0110 18:56:45.685163 251542 net.cpp:120] Setting up label_cifar_1_split
I0110 18:56:45.685458 251279 net.cpp:352] label_cifar_1_split -> label_cifar_1_split_1
I0110 18:56:45.684844 251321 net.cpp:352] label_cifar_1_split -> label_cifar_1_split_1
I0110 18:56:45.685169 251542 net.cpp:127] Top shape: 8 (8)
I0110 18:56:45.685178 251542 net.cpp:127] Top shape: 8 (8)
I0110 18:56:45.685472 251279 net.cpp:120] Setting up label_cifar_1_split
I0110 18:56:45.684856 251321 net.cpp:120] Setting up label_cifar_1_split
I0110 18:56:45.685325 251375 data_layer.cpp:72] output data size: 8,3,32,32
I0110 18:56:45.685359 251375 data_transformer.cpp:22] Loading mean file from: mean.binaryproto
I0110 18:56:45.685426 302873 net.cpp:127] Top shape: 8 32 32 32 (262144)
I0110 18:56:45.685184 251542 layer_factory.hpp:74] Creating layer conv1
I0110 18:56:45.685466 251422 data_layer.cpp:72] output data size: 8,3,32,32
I0110 18:56:45.685511 281373 net.cpp:127] Top shape: 8 32 32 32 (262144)
I0110 18:56:45.685480 251279 net.cpp:127] Top shape: 8 (8)
I0110 18:56:45.685498 251279 net.cpp:127] Top shape: 8 (8)
I0110 18:56:45.684862 251321 net.cpp:127] Top shape: 8 (8)
I0110 18:56:45.684871 251321 net.cpp:127] Top shape: 8 (8)
I0110 18:56:45.685482 251003 data_layer.cpp:72] output data size: 8,3,32,32
I0110 18:56:45.685518 281747 db.cpp:34] Opened lmdb cifar10_test_lmdb
I0110 18:56:45.685454 302873 layer_factory.hpp:74] Creating layer pool1
I0110 18:56:45.685461 302873 net.cpp:91] Creating Layer pool1
I0110 18:56:45.685463 302873 net.cpp:394] pool1 <- conv1
I0110 18:56:45.685467 302873 net.cpp:352] pool1 -> pool1
I0110 18:56:45.685197 251542 net.cpp:91] Creating Layer conv1
I0110 18:56:45.685202 251542 net.cpp:394] conv1 <- data
I0110 18:56:45.685477 251422 data_transformer.cpp:22] Loading mean file from: mean.binaryproto
I0110 18:56:45.685528 281373 layer_factory.hpp:74] Creating layer pool1
I0110 18:56:45.685535 281373 net.cpp:91] Creating Layer pool1
I0110 18:56:45.685537 281373 net.cpp:394] pool1 <- conv1
I0110 18:56:45.685503 251279 layer_factory.hpp:74] Creating layer conv1
I0110 18:56:45.684877 251321 layer_factory.hpp:74] Creating layer conv1
I0110 18:56:45.685494 251003 data_transformer.cpp:22] Loading mean file from: mean.binaryproto
I0110 18:56:45.685472 302873 net.cpp:120] Setting up pool1
I0110 18:56:45.685475 302873 net.cpp:127] Top shape: 8 32 16 16 (65536)
I0110 18:56:45.685220 251542 net.cpp:352] conv1 -> conv1
I0110 18:56:45.685544 281373 net.cpp:352] pool1 -> pool1
I0110 18:56:45.685549 281373 net.cpp:120] Setting up pool1
I0110 18:56:45.685552 281373 net.cpp:127] Top shape: 8 32 16 16 (65536)
I0110 18:56:45.685518 251279 net.cpp:91] Creating Layer conv1
I0110 18:56:45.684891 251321 net.cpp:91] Creating Layer conv1
I0110 18:56:45.685649 251375 net.cpp:127] Top shape: 8 3 32 32 (24576)
I0110 18:56:45.685482 302873 layer_factory.hpp:74] Creating layer relu1
I0110 18:56:45.685487 302873 net.cpp:91] Creating Layer relu1
I0110 18:56:45.685488 302873 net.cpp:394] relu1 <- pool1
I0110 18:56:45.685492 302873 net.cpp:341] relu1 -> pool1 (in-place)
I0110 18:56:45.685228 251542 net.cpp:120] Setting up conv1
I0110 18:56:45.685556 281373 layer_factory.hpp:74] Creating layer relu1
I0110 18:56:45.685560 281373 net.cpp:91] Creating Layer relu1
I0110 18:56:45.685564 281373 net.cpp:394] relu1 <- pool1
I0110 18:56:45.685531 251279 net.cpp:394] conv1 <- data
I0110 18:56:45.685540 251279 net.cpp:352] conv1 -> conv1
I0110 18:56:45.684896 251321 net.cpp:394] conv1 <- data
I0110 18:56:45.684922 251321 net.cpp:352] conv1 -> conv1
I0110 18:56:45.685726 281747 data_layer.cpp:72] output data size: 8,3,32,32
I0110 18:56:45.685712 251375 net.cpp:127] Top shape: 8 (8)
I0110 18:56:45.685724 251375 layer_factory.hpp:74] Creating layer label_cifar_1_split
I0110 18:56:45.685494 302873 net.cpp:120] Setting up relu1
I0110 18:56:45.685497 302873 net.cpp:127] Top shape: 8 32 16 16 (65536)
I0110 18:56:45.685660 251422 net.cpp:127] Top shape: 8 3 32 32 (24576)
I0110 18:56:45.685569 281373 net.cpp:341] relu1 -> pool1 (in-place)
I0110 18:56:45.685571 281373 net.cpp:120] Setting up relu1
I0110 18:56:45.685575 281373 net.cpp:127] Top shape: 8 32 16 16 (65536)
I0110 18:56:45.685549 251279 net.cpp:120] Setting up conv1
I0110 18:56:45.684931 251321 net.cpp:120] Setting up conv1
I0110 18:56:45.685663 251003 net.cpp:127] Top shape: 8 3 32 32 (24576)
I0110 18:56:45.685745 281747 data_transformer.cpp:22] Loading mean file from: mean.binaryproto
I0110 18:56:45.685732 251375 net.cpp:91] Creating Layer label_cifar_1_split
I0110 18:56:45.685739 251375 net.cpp:394] label_cifar_1_split <- label
I0110 18:56:45.685500 302873 layer_factory.hpp:74] Creating layer norm1
I0110 18:56:45.685515 302873 net.cpp:91] Creating Layer norm1
I0110 18:56:45.685709 251422 net.cpp:127] Top shape: 8 (8)
I0110 18:56:45.685717 251422 layer_factory.hpp:74] Creating layer label_cifar_1_split
I0110 18:56:45.685577 281373 layer_factory.hpp:74] Creating layer norm1
I0110 18:56:45.685592 281373 net.cpp:91] Creating Layer norm1
I0110 18:56:45.685690 251003 net.cpp:127] Top shape: 8 (8)
I0110 18:56:45.685750 251375 net.cpp:352] label_cifar_1_split -> label_cifar_1_split_0
I0110 18:56:45.685518 302873 net.cpp:394] norm1 <- pool1
I0110 18:56:45.685523 302873 net.cpp:352] norm1 -> norm1
I0110 18:56:45.685526 302873 net.cpp:120] Setting up norm1
I0110 18:56:45.685726 251422 net.cpp:91] Creating Layer label_cifar_1_split
I0110 18:56:45.685731 251422 net.cpp:394] label_cifar_1_split <- label
I0110 18:56:45.685595 281373 net.cpp:394] norm1 <- pool1
I0110 18:56:45.685601 281373 net.cpp:352] norm1 -> norm1
I0110 18:56:45.685606 281373 net.cpp:120] Setting up norm1
I0110 18:56:45.685699 251003 layer_factory.hpp:74] Creating layer label_cifar_1_split
I0110 18:56:45.685763 251375 net.cpp:352] label_cifar_1_split -> label_cifar_1_split_1
I0110 18:56:45.685542 302873 net.cpp:127] Top shape: 8 32 16 16 (65536)
I0110 18:56:45.685742 251422 net.cpp:352] label_cifar_1_split -> label_cifar_1_split_0
I0110 18:56:45.685621 281373 net.cpp:127] Top shape: 8 32 16 16 (65536)
I0110 18:56:45.685629 281373 layer_factory.hpp:74] Creating layer conv2
I0110 18:56:45.685751 251003 net.cpp:91] Creating Layer label_cifar_1_split
I0110 18:56:45.685775 251375 net.cpp:120] Setting up label_cifar_1_split
I0110 18:56:45.685784 251375 net.cpp:127] Top shape: 8 (8)
I0110 18:56:45.685549 302873 layer_factory.hpp:74] Creating layer conv2
I0110 18:56:45.685554 302873 net.cpp:91] Creating Layer conv2
I0110 18:56:45.685555 302873 net.cpp:394] conv2 <- norm1
I0110 18:56:45.685752 251422 net.cpp:352] label_cifar_1_split -> label_cifar_1_split_1
I0110 18:56:45.685760 251422 net.cpp:120] Setting up label_cifar_1_split
I0110 18:56:45.685634 281373 net.cpp:91] Creating Layer conv2
I0110 18:56:45.685636 281373 net.cpp:394] conv2 <- norm1
I0110 18:56:45.685641 281373 net.cpp:352] conv2 -> conv2
I0110 18:56:45.685770 251003 net.cpp:394] label_cifar_1_split <- label
I0110 18:56:45.685777 251003 net.cpp:352] label_cifar_1_split -> label_cifar_1_split_0
I0110 18:56:45.685896 281747 net.cpp:127] Top shape: 8 3 32 32 (24576)
I0110 18:56:45.685791 251375 net.cpp:127] Top shape: 8 (8)
I0110 18:56:45.685797 251375 layer_factory.hpp:74] Creating layer conv1
I0110 18:56:45.685560 302873 net.cpp:352] conv2 -> conv2
I0110 18:56:45.685565 302873 net.cpp:120] Setting up conv2
I0110 18:56:45.685766 251422 net.cpp:127] Top shape: 8 (8)
I0110 18:56:45.685645 281373 net.cpp:120] Setting up conv2
I0110 18:56:45.685787 251003 net.cpp:352] label_cifar_1_split -> label_cifar_1_split_1
I0110 18:56:45.685794 251003 net.cpp:120] Setting up label_cifar_1_split
I0110 18:56:45.685933 281747 net.cpp:127] Top shape: 8 (8)
I0110 18:56:45.685808 251375 net.cpp:91] Creating Layer conv1
I0110 18:56:45.685772 251422 net.cpp:127] Top shape: 8 (8)
I0110 18:56:45.685801 251003 net.cpp:127] Top shape: 8 (8)
I0110 18:56:45.685945 281747 layer_factory.hpp:74] Creating layer label_cifar_1_split
I0110 18:56:45.685816 251375 net.cpp:394] conv1 <- data
I0110 18:56:45.685828 251375 net.cpp:352] conv1 -> conv1
I0110 18:56:45.685794 251422 layer_factory.hpp:74] Creating layer conv1
I0110 18:56:45.685807 251003 net.cpp:127] Top shape: 8 (8)
I0110 18:56:45.685813 251003 layer_factory.hpp:74] Creating layer conv1
I0110 18:56:45.685955 281747 net.cpp:91] Creating Layer label_cifar_1_split
I0110 18:56:45.685958 281747 net.cpp:394] label_cifar_1_split <- label
I0110 18:56:45.685837 251375 net.cpp:120] Setting up conv1
I0110 18:56:45.685803 251422 net.cpp:91] Creating Layer conv1
I0110 18:56:45.685809 251422 net.cpp:394] conv1 <- data
I0110 18:56:45.685828 251003 net.cpp:91] Creating Layer conv1
I0110 18:56:45.685971 281747 net.cpp:352] label_cifar_1_split -> label_cifar_1_split_0
I0110 18:56:45.685819 251422 net.cpp:352] conv1 -> conv1
I0110 18:56:45.685835 251003 net.cpp:394] conv1 <- data
I0110 18:56:45.685845 251003 net.cpp:352] conv1 -> conv1
I0110 18:56:45.685991 281747 net.cpp:352] label_cifar_1_split -> label_cifar_1_split_1
I0110 18:56:45.685828 251422 net.cpp:120] Setting up conv1
I0110 18:56:45.685854 251003 net.cpp:120] Setting up conv1
I0110 18:56:45.685998 281747 net.cpp:120] Setting up label_cifar_1_split
I0110 18:56:45.686009 281747 net.cpp:127] Top shape: 8 (8)
I0110 18:56:45.686017 281747 net.cpp:127] Top shape: 8 (8)
I0110 18:56:45.686022 281747 layer_factory.hpp:74] Creating layer conv1
I0110 18:56:45.686033 281747 net.cpp:91] Creating Layer conv1
I0110 18:56:45.686040 281747 net.cpp:394] conv1 <- data
I0110 18:56:45.686051 281747 net.cpp:352] conv1 -> conv1
I0110 18:56:45.686070 281747 net.cpp:120] Setting up conv1
I0110 18:56:45.686283 251422 net.cpp:127] Top shape: 8 32 32 32 (262144)
I0110 18:56:45.686326 251375 net.cpp:127] Top shape: 8 32 32 32 (262144)
I0110 18:56:45.686343 251375 layer_factory.hpp:74] Creating layer pool1
I0110 18:56:45.686349 251375 net.cpp:91] Creating Layer pool1
I0110 18:56:45.686352 251375 net.cpp:394] pool1 <- conv1
I0110 18:56:45.686305 251422 layer_factory.hpp:74] Creating layer pool1
I0110 18:56:45.686312 251422 net.cpp:91] Creating Layer pool1
I0110 18:56:45.686316 251422 net.cpp:394] pool1 <- conv1
I0110 18:56:45.686309 251003 net.cpp:127] Top shape: 8 32 32 32 (262144)
I0110 18:56:45.686341 251003 layer_factory.hpp:74] Creating layer pool1
I0110 18:56:45.686336 281747 net.cpp:127] Top shape: 8 32 32 32 (262144)
I0110 18:56:45.686357 251375 net.cpp:352] pool1 -> pool1
I0110 18:56:45.686362 251375 net.cpp:120] Setting up pool1
I0110 18:56:45.686365 251375 net.cpp:127] Top shape: 8 32 16 16 (65536)
I0110 18:56:45.686369 251375 layer_factory.hpp:74] Creating layer relu1
I0110 18:56:45.686319 251422 net.cpp:352] pool1 -> pool1
I0110 18:56:45.686324 251422 net.cpp:120] Setting up pool1
I0110 18:56:45.686348 251003 net.cpp:91] Creating Layer pool1
I0110 18:56:45.686352 251003 net.cpp:394] pool1 <- conv1
I0110 18:56:45.686357 251003 net.cpp:352] pool1 -> pool1
I0110 18:56:45.686360 251003 net.cpp:120] Setting up pool1
I0110 18:56:45.686367 281747 layer_factory.hpp:74] Creating layer pool1
I0110 18:56:45.686372 281747 net.cpp:91] Creating Layer pool1
I0110 18:56:45.686372 251375 net.cpp:91] Creating Layer relu1
I0110 18:56:45.686375 251375 net.cpp:394] relu1 <- pool1
I0110 18:56:45.686378 251375 net.cpp:341] relu1 -> pool1 (in-place)
I0110 18:56:45.686381 251375 net.cpp:120] Setting up relu1
I0110 18:56:45.686049 251542 net.cpp:127] Top shape: 8 32 32 32 (262144)
I0110 18:56:45.686079 251542 layer_factory.hpp:74] Creating layer pool1
I0110 18:56:45.686089 251542 net.cpp:91] Creating Layer pool1
I0110 18:56:45.686329 251422 net.cpp:127] Top shape: 8 32 16 16 (65536)
I0110 18:56:45.686333 251422 layer_factory.hpp:74] Creating layer relu1
I0110 18:56:45.686337 251422 net.cpp:91] Creating Layer relu1
I0110 18:56:45.686341 251422 net.cpp:394] relu1 <- pool1
I0110 18:56:45.686398 251279 net.cpp:127] Top shape: 8 32 32 32 (262144)
I0110 18:56:45.686431 251279 layer_factory.hpp:74] Creating layer pool1
I0110 18:56:45.685787 251321 net.cpp:127] Top shape: 8 32 32 32 (262144)
I0110 18:56:45.685808 251321 layer_factory.hpp:74] Creating layer pool1
I0110 18:56:45.685816 251321 net.cpp:91] Creating Layer pool1
I0110 18:56:45.685818 251321 net.cpp:394] pool1 <- conv1
I0110 18:56:45.685823 251321 net.cpp:352] pool1 -> pool1
I0110 18:56:45.686365 251003 net.cpp:127] Top shape: 8 32 16 16 (65536)
I0110 18:56:45.686369 251003 layer_factory.hpp:74] Creating layer relu1
I0110 18:56:45.686373 251003 net.cpp:91] Creating Layer relu1
I0110 18:56:45.686377 251003 net.cpp:394] relu1 <- pool1
I0110 18:56:45.686375 281747 net.cpp:394] pool1 <- conv1
I0110 18:56:45.686379 281747 net.cpp:352] pool1 -> pool1
I0110 18:56:45.686384 281747 net.cpp:120] Setting up pool1
I0110 18:56:45.686384 251375 net.cpp:127] Top shape: 8 32 16 16 (65536)
I0110 18:56:45.686091 251542 net.cpp:394] pool1 <- conv1
I0110 18:56:45.686095 251542 net.cpp:352] pool1 -> pool1
I0110 18:56:45.686100 251542 net.cpp:120] Setting up pool1
I0110 18:56:45.686105 251542 net.cpp:127] Top shape: 8 32 16 16 (65536)
I0110 18:56:45.686110 251542 layer_factory.hpp:74] Creating layer relu1
I0110 18:56:45.686113 251542 net.cpp:91] Creating Layer relu1
I0110 18:56:45.686115 251542 net.cpp:394] relu1 <- pool1
I0110 18:56:45.686343 251422 net.cpp:341] relu1 -> pool1 (in-place)
I0110 18:56:45.686347 251422 net.cpp:120] Setting up relu1
I0110 18:56:45.686350 251422 net.cpp:127] Top shape: 8 32 16 16 (65536)
I0110 18:56:45.686440 251279 net.cpp:91] Creating Layer pool1
I0110 18:56:45.686444 251279 net.cpp:394] pool1 <- conv1
I0110 18:56:45.686449 251279 net.cpp:352] pool1 -> pool1
I0110 18:56:45.686452 251279 net.cpp:120] Setting up pool1
I0110 18:56:45.685828 251321 net.cpp:120] Setting up pool1
I0110 18:56:45.685833 251321 net.cpp:127] Top shape: 8 32 16 16 (65536)
I0110 18:56:45.685837 251321 layer_factory.hpp:74] Creating layer relu1
I0110 18:56:45.685842 251321 net.cpp:91] Creating Layer relu1
I0110 18:56:45.685844 251321 net.cpp:394] relu1 <- pool1
I0110 18:56:45.685847 251321 net.cpp:341] relu1 -> pool1 (in-place)
I0110 18:56:45.685852 251321 net.cpp:120] Setting up relu1
I0110 18:56:45.685854 251321 net.cpp:127] Top shape: 8 32 16 16 (65536)
I0110 18:56:45.686379 251003 net.cpp:341] relu1 -> pool1 (in-place)
I0110 18:56:45.686383 251003 net.cpp:120] Setting up relu1
I0110 18:56:45.686385 251003 net.cpp:127] Top shape: 8 32 16 16 (65536)
I0110 18:56:45.686388 281747 net.cpp:127] Top shape: 8 32 16 16 (65536)
I0110 18:56:45.686393 281747 layer_factory.hpp:74] Creating layer relu1
I0110 18:56:45.686396 281747 net.cpp:91] Creating Layer relu1
I0110 18:56:45.686388 251375 layer_factory.hpp:74] Creating layer norm1
I0110 18:56:45.686401 251375 net.cpp:91] Creating Layer norm1
I0110 18:56:45.686404 251375 net.cpp:394] norm1 <- pool1
I0110 18:56:45.686120 251542 net.cpp:341] relu1 -> pool1 (in-place)
…
  convolution_param {
    num_output: 64
    pad: 2
    kernel_size: 5
    stride: 1
    weight_filler {
      type: "gaussian"
      std: 0.01
    }
    bias_filler {
      type: "constant"
    }
  }
}
layer {
  name: "relu3"
  type: "ReLU"
  bottom: "conv3"
  top: "conv3"
}
layer {
  name: "pool3"
  type: "Pooling"
  bottom: "conv3"
  top: "pool3"
  pooling_param {
    pool: AVE
    kernel_size: 3
    stride: 2
  }
}
layer {
  name: "ip1"
  type: "InnerProduct"
  bottom: "pool3"
  top: "ip1"
  param {
    lr_mult: 1
    decay_mult: 250
  }
  param {
    lr_mult: 2
    decay_mult: 0
  }
  inner_product_param {
    num_output: 10
    weight_filler {
      type: "gaussian"
      std: 0.01
    }
    bias_filler {
      type: "constant"
    }
  }
}
layer {
  name: "accuracy"
  type: "Accuracy"
  bottom: "ip1"
  bottom: "label"
  top: "accuracy"
  include {
    phase: TEST
  }
}
layer {
  name: "loss"
  type: "SoftmaxWithLoss"
  bottom: "ip1"
  bottom: "label"
  top: "loss"
}
I0110 18:56:45.702009 251529 layer_factory.hpp:74] Creating layer cifar
I0110 18:56:45.699431 251415 net.cpp:49] Initializing net from parameters: 
name: "CIFAR10_full"
state {
  phase: TEST
}
layer {
  name: "cifar"
  type: "Data"
  top: "data"
  top: "label"
  include {
    phase: TEST
  }
  transform_param {
    mean_file: "mean.binaryproto"
  }
  data_param {
    source: "cifar10_test_lmdb"
    batch_size: 128
    backend: LMDB
  }
}
layer {
  name: "conv1"
  type: "Convolution"
  bottom: "data"
  top: "conv1"
  param {
    lr_mult: 1
  }
  param {
    lr_mult: 2
  }
  convolution_param {
    num_output: 32
    pad: 2
    kernel_size: 5
    stride: 1
    weight_filler {
      type: "gaussian"
      std: 0.0001
    }
    bias_filler {
      type: "constant"
    }
  }
}
layer {
  name: "pool1"
  type: "Pooling"
  bottom: "conv1"
  top: "pool1"
  pooling_param {
    pool: MAX
    kernel_size: 3
    stride: 2
  }
}
layer {
  name: "relu1"
  type: "ReLU"
  bottom: "pool1"
  top: "pool1"
}
layer {
  name: "norm1"
  type: "LRN"
  bottom: "pool1"
  top: "norm1"
  lrn_param {
    local_size: 3
    alpha: 5e-05
    beta: 0.75
    norm_region: WITHIN_CHANNEL
  }
}
layer {
  name: "conv2"
  type: "Convolution"
  bottom: "norm1"
  top: "conv2"
  param {
    lr_mult: 1
  }
  param {
    lr_mult: 2
  }
  convolution_param {
    num_output: 32
    pad: 2
    kernel_size: 5
    stride: 1
    weight_filler {
      type: "gaussian"
      std: 0.01
    }
    bias_filler {
      type: "constant"
    }
  }
}
layer {
  name: "relu2"
  type: "ReLU"
  bottom: "conv2"
  top: "conv2"
}
layer {
  name: "pool2"
  type: "Pooling"
  bottom: "conv2"
  top: "pool2"
  pooling_param {
    pool: AVE
    kernel_size: 3
    stride: 2
  }
}
layer {
  name: "norm2"
  type: "LRN"
  bottom: "pool2"
  top: "norm2"
  lrn_param {
    local_size: 3
    alpha: 5e-05
    beta: 0.75
    norm_region: WITHIN_CHANNEL
  }
}
layer {
  name: "conv3"
  type: "Convolution"
  bottom: "norm2"
  top: "conv3"
  convolution_param {
    num_output: 64
    pad: 2
    kernel_size: 5
    stride: 1
    weight_filler {
      type: "gaussian"
      std: 0.01
    }
    bias_filler {
      type: "constant"
    }
  }
}
layer {
  name: "relu3"
  type: "ReLU"
  bottom: "conv3"
  top: "conv3"
}
layer {
  name: "pool3"
  type: "Pooling"
  bottom: "conv3"
  top: "pool3"
  pooling_param {
    pool: AVE
    kernel_size: 3
    stride: 2
  }
}
layer {
  name: "ip1"
  type: "InnerProduct"
  bottom: "pool3"
  top: "ip1"
  param {
    lr_mult: 1
    decay_mult: 250
  }
  param {
    lr_mult: 2
    decay_mult: 0
  }
  inner_product_param {
    num_output: 10
    weight_filler {
      type: "gaussian"
      std: 0.01
    }
    bias_filler {
      type: "constant"
    }
  }
}
layer {
  name: "accuracy"
  type: "Accuracy"
  bottom: "ip1"
  bottom: "label"
  top: "accuracy"
  include {
    phase: TEST
  }
}
layer {
  name: "loss"
  type: "SoftmaxWithLoss"
  bottom: "ip1"
  bottom: "label"
  top: "loss"
}
I0110 18:56:45.701447 251273 layer_factory.hpp:74] Creating layer cifar
I0110 18:56:45.701697 251604 net.cpp:177] ip1 needs backward computation.
I0110 18:56:45.701700 251604 net.cpp:177] pool3 needs backward computation.
I0110 18:56:45.701702 251604 net.cpp:177] relu3 needs backward computation.
I0110 18:56:45.701704 251604 net.cpp:177] conv3 needs backward computation.
I0110 18:56:45.701706 251604 net.cpp:177] norm2 needs backward computation.
…
I0110 18:56:45.702271 251604 net.cpp:271] The NetState phase (1) differed from the phase (0) specified by a rule in layer cifar
I0110 18:56:45.702267 251253 solver.cpp:158] Creating test net (#0) specified by net file: cifar10_full_train_test.prototxt
I0110 18:56:45.702282 251604 net.cpp:49] Initializing net from parameters: 
name: "CIFAR10_full"
state {
  phase: TEST
}
layer {
  name: "cifar"
  type: "Data"
  top: "data"
  top: "label"
  include {
    phase: TEST
  }
  transform_param {
    mean_file: "mean.binaryproto"
  }
  data_param {
    source: "cifar10_test_lmdb"
    batch_size: 128
    backend: LMDB
  }
}
layer {
  name: "conv1"
  type: "Convolution"
  bottom: "data"
  top: "conv1"
  param {
    lr_mult: 1
  }
  param {
    lr_mult: 2
  }
  convolution_param {
    num_output: 32
    pad: 2
    kernel_size: 5
    stride: 1
    weight_filler {
      type: "gaussian"
      std: 0.0001
    }
    bias_filler {
      type: "constant"
    }
  }
}
layer {
  name: "pool1"
  type: "Pooling"
  bottom: "conv1"
  top: "pool1"
  pooling_param {
    pool: MAX
    kernel_size: 3
    stride: 2
  }
}
layer {
  name: "relu1"
  type: "ReLU"
  bottom: "pool1"
  top: "pool1"
}
layer {
  name: "norm1"
  type: "LRN"
  bottom: "pool1"
  top: "norm1"
  lrn_param {
    local_size: 3
    alpha: 5e-05
    beta: 0.75
    norm_region: WITHIN_CHANNEL
  }
}
layer {
  name: "conv2"
  type: "Convolution"
  bottom: "norm1"
  top: "conv2"
  param {
    lr_mult: 1
  }
  param {
    lr_mult: 2
  }
  convolution_param {
    num_output: 32
    pad: 2
    kernel_size: 5
    stride: 1
    weight_filler {
      type: "gaussian"
      std: 0.01
    }
    bias_filler {
      type: "constant"
    }
  }
}
layer {
  name: "relu2"
  type: "ReLU"
  bottom: "conv2"
  top: "conv2"
}
layer {
  name: "pool2"
  type: "Pooling"
  bottom: "conv2"
  top: "pool2"
  pooling_param {
    pool: AVE
    kernel_size: 3
    stride: 2
  }
}
layer {
  name: "norm2"
  type: "LRN"
  bottom: "pool2"
  top: "norm2"
  lrn_param {
    local_size: 3
    alpha: 5e-05
    beta: 0.75
    norm_region: WITHIN_CHANNEL
  }
}
layer {
  name: "conv3"
  type: "Convolution"
  bottom: "norm2"
  top: "conv3"
  convolution_param {
    num_output: 64
    pad: 2
    kernel_size: 5
    stride: 1
    weight_filler {
      type: "gaussian"
      std: 0.01
    }
    bias_filler {
      type: "constant"
    }
  }
}
layer {
  name: "relu3"
  type: "ReLU"
  bottom: "conv3"
  top: "conv3"
}
layer {
  name: "pool3"
  type: "Pooling"
  bottom: "conv3"
  top: "pool3"
  pooling_param {
    pool: AVE
    kernel_size: 3
    stride: 2
  }
}
layer {
  name: "ip1"
  type: "InnerProduct"
  bottom: "pool3"
  top: "ip1"
  param {
    lr_mult: 1
    decay_mult: 250
  }
  param {
    lr_mult: 2
    decay_mult: 0
  }
  inner_product_param {
    num_output: 10
    weight_filler {
      type: "gaussian"
      std: 0.01
    }
    bias_filler {
      type: "constant"
    }
  }
}
layer {
  name: "accuracy"
  type: "Accuracy"
  bottom: "ip1"
  bottom: "label"
  top: "accuracy"
  include {
    phase: TEST
  }
}
layer {
  name: "loss"
  type: "SoftmaxWithLoss"
  bottom: "ip1"
  bottom: "label"
  top: "loss"
}
I0110 18:56:45.702299 251253 net.cpp:271] The NetState phase (1) differed from the phase (0) specified by a rule in layer cifar
I0110 18:56:45.702486 251604 layer_factory.hpp:74] Creating layer cifar
I0110 18:56:45.702311 251253 net.cpp:49] Initializing net from parameters: 
name: "CIFAR10_full"
state {
  phase: TEST
}
layer {
  name: "cifar"
  type: "Data"
  top: "data"
  top: "label"
  include {
    phase: TEST
  }
  transform_param {
    mean_file: "mean.binaryproto"
  }
  data_param {
    source: "cifar10_test_lmdb"
    batch_size: 128
    backend: LMDB
  }
}
layer {
  name: "conv1"
  type: "Convolution"
  bottom: "data"
  top: "conv1"
  param {
    lr_mult: 1
  }
  param {
    lr_mult: 2
  }
  convolution_param {
    num_output: 32
    pad: 2
    kernel_size: 5
    stride: 1
    weight_filler {
      type: "gaussian"
      std: 0.0001
    }
    bias_filler {
      type: "constant"
    }
  }
}
layer {
  name: "pool1"
  type: "Pooling"
  bottom: "conv1"
  top: "pool1"
  pooling_param {
    pool: MAX
    kernel_size: 3
    stride: 2
  }
}
layer {
  name: "relu1"
  type: "ReLU"
  bottom: "pool1"
  top: "pool1"
}
layer {
  name: "norm1"
  type: "LRN"
  bottom: "pool1"
  top: "norm1"
  lrn_param {
    local_size: 3
    alpha: 5e-05
    beta: 0.75
    norm_region: WITHIN_CHANNEL
  }
}
layer {
  name: "conv2"
  type: "Convolution"
  bottom: "norm1"
  top: "conv2"
  param {
    lr_mult: 1
  }
  param {
    lr_mult: 2
  }
  convolution_param {
    num_output: 32
    pad: 2
    kernel_size: 5
    stride: 1
    weight_filler {
      type: "gaussian"
      std: 0.01
    }
    bias_filler {
      type: "constant"
    }
  }
}
layer {
  name: "relu2"
  type: "ReLU"
  bottom: "conv2"
  top: "conv2"
}
layer {
  name: "pool2"
  type: "Pooling"
  bottom: "conv2"
  top: "pool2"
  pooling_param {
    pool: AVE
    kernel_size: 3
    stride: 2
  }
}
layer {
  name: "norm2"
  type: "LRN"
  bottom: "pool2"
  top: "norm2"
  lrn_param {
    local_size: 3
    alpha: 5e-05
    beta: 0.75
    norm_region: WITHIN_CHANNEL
  }
}
layer {
  name: "conv3"
  type: "Convolution"
  bottom: "norm2"
  top: "conv3"
  convolution_param {
    num_output: 64
    pad: 2
    kernel_size: 5
    stride: 1
    weight_filler {
      type: "gaussian"
      std: 0.01
    }
    bias_filler {
      type: "constant"
    }
  }
}
layer {
  name: "relu3"
  type: "ReLU"
  bottom: "conv3"
  top: "conv3"
}
layer {
  name: "pool3"
  type: "Pooling"
  bottom: "conv3"
  top: "pool3"
  pooling_param {
    pool: AVE
    kernel_size: 3
    stride: 2
  }
}
layer {
  name: "ip1"
  type: "InnerProduct"
  bottom: "pool3"
  top: "ip1"
  param {
    lr_mult: 1
    decay_mult: 250
  }
  param {
    lr_mult: 2
    decay_mult: 0
  }
  inner_product_param {
    num_output: 10
    weight_filler {
      type: "gaussian"
      std: 0.01
    }
    bias_filler {
      type: "constant"
    }
  }
}
layer {
  name: "accuracy"
  type: "Accuracy"
  bottom: "ip1"
  bottom: "label"
  top: "accuracy"
  include {
    phase: TEST
  }
}
layer {
  name: "loss"
  type: "SoftmaxWithLoss"
  bottom: "ip1"
  bottom: "label"
  top: "loss"
}
I0110 18:56:45.702502 251604 net.cpp:91] Creating Layer cifar
I0110 18:56:45.702507 251604 net.cpp:352] cifar -> data
I0110 18:56:45.702514 251604 net.cpp:352] cifar -> label
I0110 18:56:45.702519 251604 net.cpp:120] Setting up cifar
I0110 18:56:45.702510 251253 layer_factory.hpp:74] Creating layer cifar
I0110 18:56:45.702522 251253 net.cpp:91] Creating Layer cifar
I0110 18:56:45.702535 251253 net.cpp:352] cifar -> data
I0110 18:56:45.702543 251253 net.cpp:352] cifar -> label
I0110 18:56:45.702548 251253 net.cpp:120] Setting up cifar
I0110 18:56:45.702512 251273 db.cpp:34] Opened lmdb cifar10_test_lmdb
I0110 18:56:45.702723 251203 db.cpp:34] Opened lmdb cifar10_test_lmdb
I0110 18:56:45.700623 251415 db.cpp:34] Opened lmdb cifar10_test_lmdb
I0110 18:56:45.702626 251273 data_layer.cpp:72] output data size: 8,3,32,32
I0110 18:56:45.702831 251203 data_layer.cpp:72] output data size: 8,3,32,32
I0110 18:56:45.700736 251415 data_layer.cpp:72] output data size: 8,3,32,32
I0110 18:56:45.700747 251415 data_transformer.cpp:22] Loading mean file from: mean.binaryproto
I0110 18:56:45.702638 251273 data_transformer.cpp:22] Loading mean file from: mean.binaryproto
I0110 18:56:45.702843 251203 data_transformer.cpp:22] Loading mean file from: mean.binaryproto
I0110 18:56:45.703101 251529 db.cpp:34] Opened lmdb cifar10_test_lmdb
I0110 18:56:45.703238 251253 db.cpp:34] Opened lmdb cifar10_test_lmdb
I0110 18:56:45.703002 251203 net.cpp:127] Top shape: 8 3 32 32 (24576)
I0110 18:56:45.703325 251529 data_layer.cpp:72] output data size: 8,3,32,32
I0110 18:56:45.703336 251529 data_transformer.cpp:22] Loading mean file from: mean.binaryproto
I0110 18:56:45.703339 251253 data_layer.cpp:72] output data size: 8,3,32,32
I0110 18:56:45.703330 251604 db.cpp:34] Opened lmdb cifar10_test_lmdb
I0110 18:56:45.703351 251253 data_transformer.cpp:22] Loading mean file from: mean.binaryproto
I0110 18:56:45.703014 251203 net.cpp:127] Top shape: 8 (8)
I0110 18:56:45.703022 251203 layer_factory.hpp:74] Creating layer label_cifar_1_split
I0110 18:56:45.700904 251415 net.cpp:127] Top shape: 8 3 32 32 (24576)
I0110 18:56:45.702817 251273 net.cpp:127] Top shape: 8 3 32 32 (24576)
I0110 18:56:45.703032 251203 net.cpp:91] Creating Layer label_cifar_1_split
I0110 18:56:45.703035 251203 net.cpp:394] label_cifar_1_split <- label
I0110 18:56:45.703039 251203 net.cpp:352] label_cifar_1_split -> label_cifar_1_split_0
I0110 18:56:45.700940 251415 net.cpp:127] Top shape: 8 (8)
I0110 18:56:45.700949 251415 layer_factory.hpp:74] Creating layer label_cifar_1_split
I0110 18:56:45.702841 251273 net.cpp:127] Top shape: 8 (8)
I0110 18:56:45.702849 251273 layer_factory.hpp:74] Creating layer label_cifar_1_split
I0110 18:56:45.703521 251604 data_layer.cpp:72] output data size: 8,3,32,32
I0110 18:56:45.703047 251203 net.cpp:352] label_cifar_1_split -> label_cifar_1_split_1
I0110 18:56:45.703052 251203 net.cpp:120] Setting up label_cifar_1_split
I0110 18:56:45.700958 251415 net.cpp:91] Creating Layer label_cifar_1_split
I0110 18:56:45.700963 251415 net.cpp:394] label_cifar_1_split <- label
I0110 18:56:45.702858 251273 net.cpp:91] Creating Layer label_cifar_1_split
I0110 18:56:45.702864 251273 net.cpp:394] label_cifar_1_split <- label
I0110 18:56:45.703536 251604 data_transformer.cpp:22] Loading mean file from: mean.binaryproto
I0110 18:56:45.703058 251203 net.cpp:127] Top shape: 8 (8)
I0110 18:56:45.703060 251203 net.cpp:127] Top shape: 8 (8)
I0110 18:56:45.703063 251203 layer_factory.hpp:74] Creating layer conv1
I0110 18:56:45.703069 251203 net.cpp:91] Creating Layer conv1
I0110 18:56:45.703496 251529 net.cpp:127] Top shape: 8 3 32 32 (24576)
I0110 18:56:45.700973 251415 net.cpp:352] label_cifar_1_split -> label_cifar_1_split_0
I0110 18:56:45.702870 251273 net.cpp:352] label_cifar_1_split -> label_cifar_1_split_0
I0110 18:56:45.703510 251253 net.cpp:127] Top shape: 8 3 32 32 (24576)
I0110 18:56:45.703071 251203 net.cpp:394] conv1 <- data
I0110 18:56:45.703078 251203 net.cpp:352] conv1 -> conv1
I0110 18:56:45.703527 251529 net.cpp:127] Top shape: 8 (8)
I0110 18:56:45.703536 251529 layer_factory.hpp:74] Creating layer label_cifar_1_split
I0110 18:56:45.700984 251415 net.cpp:352] label_cifar_1_split -> label_cifar_1_split_1
I0110 18:56:45.700990 251415 net.cpp:120] Setting up label_cifar_1_split
I0110 18:56:45.702883 251273 net.cpp:352] label_cifar_1_split -> label_cifar_1_split_1
I0110 18:56:45.703542 251253 net.cpp:127] Top shape: 8 (8)
I0110 18:56:45.703083 251203 net.cpp:120] Setting up conv1
I0110 18:56:45.703546 251529 net.cpp:91] Creating Layer label_cifar_1_split
I0110 18:56:45.703550 251529 net.cpp:394] label_cifar_1_split <- label
I0110 18:56:45.700997 251415 net.cpp:127] Top shape: 8 (8)
I0110 18:56:45.701004 251415 net.cpp:127] Top shape: 8 (8)
I0110 18:56:45.702891 251273 net.cpp:120] Setting up label_cifar_1_split
I0110 18:56:45.703557 251253 layer_factory.hpp:74] Creating layer label_cifar_1_split
I0110 18:56:45.703562 251529 net.cpp:352] label_cifar_1_split -> label_cifar_1_split_0
I0110 18:56:45.701009 251415 layer_factory.hpp:74] Creating layer conv1
I0110 18:56:45.701019 251415 net.cpp:91] Creating Layer conv1
I0110 18:56:45.702906 251273 net.cpp:127] Top shape: 8 (8)
I0110 18:56:45.702913 251273 net.cpp:127] Top shape: 8 (8)
I0110 18:56:45.702919 251273 layer_factory.hpp:74] Creating layer conv1
I0110 18:56:45.703702 251604 net.cpp:127] Top shape: 8 3 32 32 (24576)
I0110 18:56:45.703567 251253 net.cpp:91] Creating Layer label_cifar_1_split
I0110 18:56:45.703583 251529 net.cpp:352] label_cifar_1_split -> label_cifar_1_split_1
I0110 18:56:45.701023 251415 net.cpp:394] conv1 <- data
I0110 18:56:45.702929 251273 net.cpp:91] Creating Layer conv1
I0110 18:56:45.703729 251604 net.cpp:127] Top shape: 8 (8)
I0110 18:56:45.703579 251253 net.cpp:394] label_cifar_1_split <- label
I0110 18:56:45.703593 251529 net.cpp:120] Setting up label_cifar_1_split
I0110 18:56:45.703598 251529 net.cpp:127] Top shape: 8 (8)
I0110 18:56:45.701033 251415 net.cpp:352] conv1 -> conv1
I0110 18:56:45.701042 251415 net.cpp:120] Setting up conv1
I0110 18:56:45.702932 251273 net.cpp:394] conv1 <- data
I0110 18:56:45.703758 251604 layer_factory.hpp:74] Creating layer label_cifar_1_split
I0110 18:56:45.703596 251253 net.cpp:352] label_cifar_1_split -> label_cifar_1_split_0
I0110 18:56:45.703568 251203 net.cpp:127] Top shape: 8 32 32 32 (262144)
I0110 18:56:45.703584 251203 layer_factory.hpp:74] Creating layer pool1
I0110 18:56:45.703591 251203 net.cpp:91] Creating Layer pool1
I0110 18:56:45.703593 251203 net.cpp:394] pool1 <- conv1
I0110 18:56:45.703598 251203 net.cpp:352] pool1 -> pool1
I0110 18:56:45.703605 251529 net.cpp:127] Top shape: 8 (8)
I0110 18:56:45.703613 251529 layer_factory.hpp:74] Creating layer conv1
I0110 18:56:45.701495 251415 net.cpp:127] Top shape: 8 32 32 32 (262144)
I0110 18:56:45.701524 251415 layer_factory.hpp:74] Creating layer pool1
I0110 18:56:45.701531 251415 net.cpp:91] Creating Layer pool1
I0110 18:56:45.702947 251273 net.cpp:352] conv1 -> conv1
I0110 18:56:45.702956 251273 net.cpp:120] Setting up conv1
I0110 18:56:45.703769 251604 net.cpp:91] Creating Layer label_cifar_1_split
I0110 18:56:45.703776 251604 net.cpp:394] label_cifar_1_split <- label
I0110 18:56:45.703606 251253 net.cpp:352] label_cifar_1_split -> label_cifar_1_split_1
I0110 18:56:45.703613 251253 net.cpp:120] Setting up label_cifar_1_split
I0110 18:56:45.703603 251203 net.cpp:120] Setting up pool1
I0110 18:56:45.703608 251203 net.cpp:127] Top shape: 8 32 16 16 (65536)
I0110 18:56:45.703611 251203 layer_factory.hpp:74] Creating layer relu1
I0110 18:56:45.703615 251203 net.cpp:91] Creating Layer relu1
I0110 18:56:45.703618 251203 net.cpp:394] relu1 <- pool1
I0110 18:56:45.703620 251203 net.cpp:341] relu1 -> pool1 (in-place)
I0110 18:56:45.703624 251203 net.cpp:120] Setting up relu1
I0110 18:56:45.703626 251203 net.cpp:127] Top shape: 8 32 16 16 (65536)
I0110 18:56:45.703626 251529 net.cpp:91] Creating Layer conv1
I0110 18:56:45.701534 251415 net.cpp:394] pool1 <- conv1
I0110 18:56:45.701539 251415 net.cpp:352] pool1 -> pool1
I0110 18:56:45.701544 251415 net.cpp:120] Setting up pool1
I0110 18:56:45.701548 251415 net.cpp:127] Top shape: 8 32 16 16 (65536)
I0110 18:56:45.701555 251415 layer_factory.hpp:74] Creating layer relu1
I0110 18:56:45.701558 251415 net.cpp:91] Creating Layer relu1
I0110 18:56:45.701560 251415 net.cpp:394] relu1 <- pool1
I0110 18:56:45.703383 251273 net.cpp:127] Top shape: 8 32 32 32 (262144)
I0110 18:56:45.703400 251273 layer_factory.hpp:74] Creating layer pool1
I0110 18:56:45.703407 251273 net.cpp:91] Creating Layer pool1
I0110 18:56:45.703408 251273 net.cpp:394] pool1 <- conv1
I0110 18:56:45.703413 251273 net.cpp:352] pool1 -> pool1
I0110 18:56:45.703783 251604 net.cpp:352] label_cifar_1_split -> label_cifar_1_split_0
I0110 18:56:45.703620 251253 net.cpp:127] Top shape: 8 (8)
I0110 18:56:45.703630 251203 layer_factory.hpp:74] Creating layer norm1
I0110 18:56:45.703644 251203 net.cpp:91] Creating Layer norm1
I0110 18:56:45.703636 251529 net.cpp:394] conv1 <- data
I0110 18:56:45.703645 251529 net.cpp:352] conv1 -> conv1
I0110 18:56:45.701563 251415 net.cpp:341] relu1 -> pool1 (in-place)
I0110 18:56:45.701567 251415 net.cpp:120] Setting up relu1
I0110 18:56:45.701570 251415 net.cpp:127] Top shape: 8 32 16 16 (65536)
I0110 18:56:45.703418 251273 net.cpp:120] Setting up pool1
I0110 18:56:45.703421 251273 net.cpp:127] Top shape: 8 32 16 16 (65536)
I0110 18:56:45.703425 251273 layer_factory.hpp:74] Creating layer relu1
I0110 18:56:45.703430 251273 net.cpp:91] Creating Layer relu1
I0110 18:56:45.703433 251273 net.cpp:394] relu1 <- pool1
I0110 18:56:45.703435 251273 net.cpp:341] relu1 -> pool1 (in-place)
I0110 18:56:45.703439 251273 net.cpp:120] Setting up relu1
I0110 18:56:45.703799 251604 net.cpp:352] label_cifar_1_split -> label_cifar_1_split_1
I0110 18:56:45.703629 251253 net.cpp:127] Top shape: 8 (8)
I0110 18:56:45.703639 251253 layer_factory.hpp:74] Creating layer conv1
I0110 18:56:45.703646 251203 net.cpp:394] norm1 <- pool1
I0110 18:56:45.703649 251203 net.cpp:352] norm1 -> norm1
I0110 18:56:45.703654 251203 net.cpp:120] Setting up norm1
I0110 18:56:45.703654 251529 net.cpp:120] Setting up conv1
I0110 18:56:45.701573 251415 layer_factory.hpp:74] Creating layer norm1
I0110 18:56:45.701588 251415 net.cpp:91] Creating Layer norm1
I0110 18:56:45.703441 251273 net.cpp:127] Top shape: 8 32 16 16 (65536)
I0110 18:56:45.703444 251273 layer_factory.hpp:74] Creating layer norm1
I0110 18:56:45.703809 251604 net.cpp:120] Setting up label_cifar_1_split
I0110 18:56:45.703815 251604 net.cpp:127] Top shape: 8 (8)
I0110 18:56:45.703654 251253 net.cpp:91] Creating Layer conv1
I0110 18:56:45.703665 251203 net.cpp:127] Top shape: 8 32 16 16 (65536)
I0110 18:56:45.703670 251203 layer_factory.hpp:74] Creating layer conv2
I0110 18:56:45.703902 251529 net.cpp:127] Top shape: 8 32 32 32 (262144)
I0110 18:56:45.701591 251415 net.cpp:394] norm1 <- pool1
I0110 18:56:45.701594 251415 net.cpp:352] norm1 -> norm1
I0110 18:56:45.701598 251415 net.cpp:120] Setting up norm1
I0110 18:56:45.703457 251273 net.cpp:91] Creating Layer norm1
I0110 18:56:45.703460 251273 net.cpp:394] norm1 <- pool1
I0110 18:56:45.703464 251273 net.cpp:352] norm1 -> norm1
I0110 18:56:45.703821 251604 net.cpp:127] Top shape: 8 (8)
I0110 18:56:45.703827 251604 layer_factory.hpp:74] Creating layer conv1
I0110 18:56:45.703662 251253 net.cpp:394] conv1 <- data
I0110 18:56:45.703670 251253 net.cpp:352] conv1 -> conv1
I0110 18:56:45.703676 251203 net.cpp:91] Creating Layer conv2
I0110 18:56:45.703678 251203 net.cpp:394] conv2 <- norm1
I0110 18:56:45.703682 251203 net.cpp:352] conv2 -> conv2
I0110 18:56:45.703922 251529 layer_factory.hpp:74] Creating layer pool1
I0110 18:56:45.703927 251529 net.cpp:91] Creating Layer pool1
I0110 18:56:45.701609 251415 net.cpp:127] Top shape: 8 32 16 16 (65536)
I0110 18:56:45.701614 251415 layer_factory.hpp:74] Creating layer conv2
I0110 18:56:45.703467 251273 net.cpp:120] Setting up norm1
I0110 18:56:45.703836 251604 net.cpp:91] Creating Layer conv1
I0110 18:56:45.703841 251604 net.cpp:394] conv1 <- data
I0110 18:56:45.703680 251253 net.cpp:120] Setting up conv1
I0110 18:56:45.703687 251203 net.cpp:120] Setting up conv2
I0110 18:56:45.703930 251529 net.cpp:394] pool1 <- conv1
I0110 18:56:45.703934 251529 net.cpp:352] pool1 -> pool1
I0110 18:56:45.703939 251529 net.cpp:120] Setting up pool1
I0110 18:56:45.701618 251415 net.cpp:91] Creating Layer conv2
I0110 18:56:45.701620 251415 net.cpp:394] conv2 <- norm1
I0110 18:56:45.701624 251415 net.cpp:352] conv2 -> conv2
I0110 18:56:45.701628 251415 net.cpp:120] Setting up conv2
I0110 18:56:45.703479 251273 net.cpp:127] Top shape: 8 32 16 16 (65536)
I0110 18:56:45.703482 251273 layer_factory.hpp:74] Creating layer conv2
I0110 18:56:45.703486 251273 net.cpp:91] Creating Layer conv2
I0110 18:56:45.703490 251273 net.cpp:394] conv2 <- norm1
I0110 18:56:45.703861 251604 net.cpp:352] conv1 -> conv1
I0110 18:56:45.704120 251253 net.cpp:127] Top shape: 8 32 32 32 (262144)
I0110 18:56:45.704140 251253 layer_factory.hpp:74] Creating layer pool1
I0110 18:56:45.704146 251253 net.cpp:91] Creating Layer pool1
I0110 18:56:45.704149 251253 net.cpp:394] pool1 <- conv1
I0110 18:56:45.704154 251253 net.cpp:352] pool1 -> pool1
I0110 18:56:45.703943 251529 net.cpp:127] Top shape: 8 32 16 16 (65536)
I0110 18:56:45.703948 251529 layer_factory.hpp:74] Creating layer relu1
I0110 18:56:45.703951 251529 net.cpp:91] Creating Layer relu1
I0110 18:56:45.703954 251529 net.cpp:394] relu1 <- pool1
I0110 18:56:45.703492 251273 net.cpp:352] conv2 -> conv2
I0110 18:56:45.703496 251273 net.cpp:120] Setting up conv2
I0110 18:56:45.703871 251604 net.cpp:120] Setting up conv1
I0110 18:56:45.704157 251253 net.cpp:120] Setting up pool1
I0110 18:56:45.704162 251253 net.cpp:127] Top shape: 8 32 16 16 (65536)
I0110 18:56:45.704165 251253 layer_factory.hpp:74] Creating layer relu1
I0110 18:56:45.704169 251253 net.cpp:91] Creating Layer relu1
I0110 18:56:45.704171 251253 net.cpp:394] relu1 <- pool1
I0110 18:56:45.704174 251253 net.cpp:341] relu1 -> pool1 (in-place)
I0110 18:56:45.704179 251253 net.cpp:120] Setting up relu1
I0110 18:56:45.703959 251529 net.cpp:341] relu1 -> pool1 (in-place)
I0110 18:56:45.703963 251529 net.cpp:120] Setting up relu1
I0110 18:56:45.703965 251529 net.cpp:127] Top shape: 8 32 16 16 (65536)
I0110 18:56:45.704144 251604 net.cpp:127] Top shape: 8 32 32 32 (262144)
I0110 18:56:45.704180 251253 net.cpp:127] Top shape: 8 32 16 16 (65536)
I0110 18:56:45.704183 251253 layer_factory.hpp:74] Creating layer norm1
I0110 18:56:45.703969 251529 layer_factory.hpp:74] Creating layer norm1
I0110 18:56:45.704162 251604 layer_factory.hpp:74] Creating layer pool1
I0110 18:56:45.704169 251604 net.cpp:91] Creating Layer pool1
I0110 18:56:45.704171 251604 net.cpp:394] pool1 <- conv1
I0110 18:56:45.704200 251253 net.cpp:91] Creating Layer norm1
I0110 18:56:45.704202 251253 net.cpp:394] norm1 <- pool1
I0110 18:56:45.703984 251529 net.cpp:91] Creating Layer norm1
I0110 18:56:45.703986 251529 net.cpp:394] norm1 <- pool1
I0110 18:56:45.703989 251529 net.cpp:352] norm1 -> norm1
I0110 18:56:45.703994 251529 net.cpp:120] Setting up norm1
I0110 18:56:45.704175 251604 net.cpp:352] pool1 -> pool1
I0110 18:56:45.704180 251604 net.cpp:120] Setting up pool1
I0110 18:56:45.704205 251253 net.cpp:352] norm1 -> norm1
I0110 18:56:45.704210 251253 net.cpp:120] Setting up norm1
I0110 18:56:45.704005 251529 net.cpp:127] Top shape: 8 32 16 16 (65536)
I0110 18:56:45.704010 251529 layer_factory.hpp:74] Creating layer conv2
I0110 18:56:45.704185 251604 net.cpp:127] Top shape: 8 32 16 16 (65536)
I0110 18:56:45.704188 251604 layer_factory.hpp:74] Creating layer relu1
I0110 18:56:45.704191 251604 net.cpp:91] Creating Layer relu1
I0110 18:56:45.704195 251604 net.cpp:394] relu1 <- pool1
I0110 18:56:45.704221 251253 net.cpp:127] Top shape: 8 32 16 16 (65536)
I0110 18:56:45.704224 251253 layer_factory.hpp:74] Creating layer conv2
I0110 18:56:45.704228 251253 net.cpp:91] Creating Layer conv2
I0110 18:56:45.704013 251529 net.cpp:91] Creating Layer conv2
I0110 18:56:45.704015 251529 net.cpp:394] conv2 <- norm1
I0110 18:56:45.704020 251529 net.cpp:352] conv2 -> conv2
I0110 18:56:45.704023 251529 net.cpp:120] Setting up conv2
I0110 18:56:45.704197 251604 net.cpp:341] relu1 -> pool1 (in-place)
I0110 18:56:45.704200 251604 net.cpp:120] Setting up relu1
I0110 18:56:45.704202 251604 net.cpp:127] Top shape: 8 32 16 16 (65536)
I0110 18:56:45.704231 251253 net.cpp:394] conv2 <- norm1
I0110 18:56:45.704234 251253 net.cpp:352] conv2 -> conv2
I0110 18:56:45.704238 251253 net.cpp:120] Setting up conv2
I0110 18:56:45.704205 251604 layer_factory.hpp:74] Creating layer norm1
I0110 18:56:45.704219 251604 net.cpp:91] Creating Layer norm1
I0110 18:56:45.704222 251604 net.cpp:394] norm1 <- pool1
I0110 18:56:45.704226 251604 net.cpp:352] norm1 -> norm1
I0110 18:56:45.704229 251604 net.cpp:120] Setting up norm1
I0110 18:56:45.704242 251604 net.cpp:127] Top shape: 8 32 16 16 (65536)
I0110 18:56:45.704246 251604 layer_factory.hpp:74] Creating layer conv2
I0110 18:56:45.704252 251604 net.cpp:91] Creating Layer conv2
I0110 18:56:45.704253 251604 net.cpp:394] conv2 <- norm1
I0110 18:56:45.704258 251604 net.cpp:352] conv2 -> conv2
I0110 18:56:45.704263 251604 net.cpp:120] Setting up conv2
I0110 18:56:45.704592 251273 net.cpp:127] Top shape: 8 32 16 16 (65536)
I0110 18:56:45.704609 251273 layer_factory.hpp:74] Creating layer relu2
I0110 18:56:45.704627 251273 net.cpp:91] Creating Layer relu2
I0110 18:56:45.704629 251273 net.cpp:394] relu2 <- conv2
I0110 18:56:45.704782 251203 net.cpp:127] Top shape: 8 32 16 16 (65536)
I0110 18:56:45.704813 251203 layer_factory.hpp:74] Creating layer relu2
I0110 18:56:45.704820 251203 net.cpp:91] Creating Layer relu2
I0110 18:56:45.702757 251415 net.cpp:127] Top shape: 8 32 16 16 (65536)
I0110 18:56:45.702785 251415 layer_factory.hpp:74] Creating layer relu2
I0110 18:56:45.702791 251415 net.cpp:91] Creating Layer relu2
I0110 18:56:45.702795 251415 net.cpp:394] relu2 <- conv2
I0110 18:56:45.704633 251273 net.cpp:341] relu2 -> conv2 (in-place)
I0110 18:56:45.704638 251273 net.cpp:120] Setting up relu2
I0110 18:56:45.704640 251273 net.cpp:127] Top shape: 8 32 16 16 (65536)
I0110 18:56:45.704644 251273 layer_factory.hpp:74] Creating layer pool2
I0110 18:56:45.704648 251273 net.cpp:91] Creating Layer pool2
I0110 18:56:45.704651 251273 net.cpp:394] pool2 <- conv2
I0110 18:56:45.704654 251273 net.cpp:352] pool2 -> pool2
I0110 18:56:45.704659 251273 net.cpp:120] Setting up pool2
I0110 18:56:45.704823 251203 net.cpp:394] relu2 <- conv2
I0110 18:56:45.704828 251203 net.cpp:341] relu2 -> conv2 (in-place)
I0110 18:56:45.704831 251203 net.cpp:120] Setting up relu2
I0110 18:56:45.704834 251203 net.cpp:127] Top shape: 8 32 16 16 (65536)
I0110 18:56:45.704838 251203 layer_factory.hpp:74] Creating layer pool2
I0110 18:56:45.704843 251203 net.cpp:91] Creating Layer pool2
I0110 18:56:45.704845 251203 net.cpp:394] pool2 <- conv2
I0110 18:56:45.704849 251203 net.cpp:352] pool2 -> pool2
I0110 18:56:45.705168 251529 net.cpp:127] Top shape: 8 32 16 16 (65536)
I0110 18:56:45.705199 251529 layer_factory.hpp:74] Creating layer relu2
I0110 18:56:45.705205 251529 net.cpp:91] Creating Layer relu2
I0110 18:56:45.705209 251529 net.cpp:394] relu2 <- conv2
I0110 18:56:45.702798 251415 net.cpp:341] relu2 -> conv2 (in-place)
I0110 18:56:45.702802 251415 net.cpp:120] Setting up relu2
I0110 18:56:45.702805 251415 net.cpp:127] Top shape: 8 32 16 16 (65536)
I0110 18:56:45.702810 251415 layer_factory.hpp:74] Creating layer pool2
I0110 18:56:45.702813 251415 net.cpp:91] Creating Layer pool2
I0110 18:56:45.702816 251415 net.cpp:394] pool2 <- conv2
I0110 18:56:45.702821 251415 net.cpp:352] pool2 -> pool2
I0110 18:56:45.704663 251273 net.cpp:127] Top shape: 8 32 8 8 (16384)
I0110 18:56:45.704668 251273 layer_factory.hpp:74] Creating layer norm2
I0110 18:56:45.704673 251273 net.cpp:91] Creating Layer norm2
I0110 18:56:45.704675 251273 net.cpp:394] norm2 <- pool2
I0110 18:56:45.704854 251203 net.cpp:120] Setting up pool2
I0110 18:56:45.704859 251203 net.cpp:127] Top shape: 8 32 8 8 (16384)
I0110 18:56:45.704865 251203 layer_factory.hpp:74] Creating layer norm2
I0110 18:56:45.705212 251529 net.cpp:341] relu2 -> conv2 (in-place)
I0110 18:56:45.705216 251529 net.cpp:120] Setting up relu2
I0110 18:56:45.705219 251529 net.cpp:127] Top shape: 8 32 16 16 (65536)
I0110 18:56:45.705224 251529 layer_factory.hpp:74] Creating layer pool2
I0110 18:56:45.705227 251529 net.cpp:91] Creating Layer pool2
I0110 18:56:45.705230 251529 net.cpp:394] pool2 <- conv2
I0110 18:56:45.705234 251529 net.cpp:352] pool2 -> pool2
I0110 18:56:45.702826 251415 net.cpp:120] Setting up pool2
I0110 18:56:45.702831 251415 net.cpp:127] Top shape: 8 32 8 8 (16384)
I0110 18:56:45.702833 251415 layer_factory.hpp:74] Creating layer norm2
I0110 18:56:45.704679 251273 net.cpp:352] norm2 -> norm2
I0110 18:56:45.704682 251273 net.cpp:120] Setting up norm2
I0110 18:56:45.705302 251604 net.cpp:127] Top shape: 8 32 16 16 (65536)
I0110 18:56:45.705277 251253 net.cpp:127] Top shape: 8 32 16 16 (65536)
I0110 18:56:45.705304 251253 layer_factory.hpp:74] Creating layer relu2
I0110 18:56:45.705312 251253 net.cpp:91] Creating Layer relu2
I0110 18:56:45.704870 251203 net.cpp:91] Creating Layer norm2
I0110 18:56:45.704872 251203 net.cpp:394] norm2 <- pool2
I0110 18:56:45.704876 251203 net.cpp:352] norm2 -> norm2
I0110 18:56:45.705238 251529 net.cpp:120] Setting up pool2
I0110 18:56:45.705242 251529 net.cpp:127] Top shape: 8 32 8 8 (16384)
I0110 18:56:45.705246 251529 layer_factory.hpp:74] Creating layer norm2
I0110 18:56:45.705252 251529 net.cpp:91] Creating Layer norm2
I0110 18:56:45.702837 251415 net.cpp:91] Creating Layer norm2
I0110 18:56:45.702841 251415 net.cpp:394] norm2 <- pool2
I0110 18:56:45.702843 251415 net.cpp:352] norm2 -> norm2
I0110 18:56:45.702847 251415 net.cpp:120] Setting up norm2
I0110 18:56:45.704694 251273 net.cpp:127] Top shape: 8 32 8 8 (16384)
I0110 18:56:45.704699 251273 layer_factory.hpp:74] Creating layer conv3
I0110 18:56:45.705318 251604 layer_factory.hpp:74] Creating layer relu2
I0110 18:56:45.705327 251604 net.cpp:91] Creating Layer relu2
I0110 18:56:45.705329 251604 net.cpp:394] relu2 <- conv2
I0110 18:56:45.705315 251253 net.cpp:394] relu2 <- conv2
I0110 18:56:45.705319 251253 net.cpp:341] relu2 -> conv2 (in-place)
I0110 18:56:45.705323 251253 net.cpp:120] Setting up relu2
I0110 18:56:45.705327 251253 net.cpp:127] Top shape: 8 32 16 16 (65536)
I0110 18:56:45.705329 251253 layer_factory.hpp:74] Creating layer pool2
I0110 18:56:45.705334 251253 net.cpp:91] Creating Layer pool2
I0110 18:56:45.705337 251253 net.cpp:394] pool2 <- conv2
I0110 18:56:45.705340 251253 net.cpp:352] pool2 -> pool2
I0110 18:56:45.704881 251203 net.cpp:120] Setting up norm2
I0110 18:56:45.705255 251529 net.cpp:394] norm2 <- pool2
I0110 18:56:45.705258 251529 net.cpp:352] norm2 -> norm2
I0110 18:56:45.705262 251529 net.cpp:120] Setting up norm2
I0110 18:56:45.702857 251415 net.cpp:127] Top shape: 8 32 8 8 (16384)
I0110 18:56:45.702862 251415 layer_factory.hpp:74] Creating layer conv3
I0110 18:56:45.704702 251273 net.cpp:91] Creating Layer conv3
I0110 18:56:45.704705 251273 net.cpp:394] conv3 <- norm2
I0110 18:56:45.704708 251273 net.cpp:352] conv3 -> conv3
I0110 18:56:45.704713 251273 net.cpp:120] Setting up conv3
I0110 18:56:45.705333 251604 net.cpp:341] relu2 -> conv2 (in-place)
I0110 18:56:45.705338 251604 net.cpp:120] Setting up relu2
I0110 18:56:45.705340 251604 net.cpp:127] Top shape: 8 32 16 16 (65536)
I0110 18:56:45.705343 251604 layer_factory.hpp:74] Creating layer pool2
I0110 18:56:45.705344 251253 net.cpp:120] Setting up pool2
I0110 18:56:45.705348 251253 net.cpp:127] Top shape: 8 32 8 8 (16384)
I0110 18:56:45.705353 251253 layer_factory.hpp:74] Creating layer norm2
I0110 18:56:45.704895 251203 net.cpp:127] Top shape: 8 32 8 8 (16384)
I0110 18:56:45.704900 251203 layer_factory.hpp:74] Creating layer conv3
I0110 18:56:45.704903 251203 net.cpp:91] Creating Layer conv3
I0110 18:56:45.705274 251529 net.cpp:127] Top shape: 8 32 8 8 (16384)
I0110 18:56:45.705278 251529 layer_factory.hpp:74] Creating layer conv3
I0110 18:56:45.702869 251415 net.cpp:91] Creating Layer conv3
I0110 18:56:45.702872 251415 net.cpp:394] conv3 <- norm2
I0110 18:56:45.702875 251415 net.cpp:352] conv3 -> conv3
I0110 18:56:45.705348 251604 net.cpp:91] Creating Layer pool2
I0110 18:56:45.705350 251604 net.cpp:394] pool2 <- conv2
I0110 18:56:45.705353 251604 net.cpp:352] pool2 -> pool2
I0110 18:56:45.705358 251253 net.cpp:91] Creating Layer norm2
I0110 18:56:45.705360 251253 net.cpp:394] norm2 <- pool2
I0110 18:56:45.705364 251253 net.cpp:352] norm2 -> norm2
I0110 18:56:45.705368 251253 net.cpp:120] Setting up norm2
I0110 18:56:45.704906 251203 net.cpp:394] conv3 <- norm2
I0110 18:56:45.704910 251203 net.cpp:352] conv3 -> conv3
I0110 18:56:45.704916 251203 net.cpp:120] Setting up conv3
I0110 18:56:45.705282 251529 net.cpp:91] Creating Layer conv3
I0110 18:56:45.705286 251529 net.cpp:394] conv3 <- norm2
I0110 18:56:45.705289 251529 net.cpp:352] conv3 -> conv3
I0110 18:56:45.705293 251529 net.cpp:120] Setting up conv3
I0110 18:56:45.702880 251415 net.cpp:120] Setting up conv3
I0110 18:56:45.705358 251604 net.cpp:120] Setting up pool2
I0110 18:56:45.705363 251604 net.cpp:127] Top shape: 8 32 8 8 (16384)
I0110 18:56:45.705366 251604 layer_factory.hpp:74] Creating layer norm2
I0110 18:56:45.705379 251253 net.cpp:127] Top shape: 8 32 8 8 (16384)
I0110 18:56:45.705384 251253 layer_factory.hpp:74] Creating layer conv3
I0110 18:56:45.705370 251604 net.cpp:91] Creating Layer norm2
I0110 18:56:45.705373 251604 net.cpp:394] norm2 <- pool2
I0110 18:56:45.705379 251604 net.cpp:352] norm2 -> norm2
I0110 18:56:45.705389 251253 net.cpp:91] Creating Layer conv3
I0110 18:56:45.705390 251253 net.cpp:394] conv3 <- norm2
I0110 18:56:45.705394 251253 net.cpp:352] conv3 -> conv3
I0110 18:56:45.705399 251253 net.cpp:120] Setting up conv3
I0110 18:56:45.705382 251604 net.cpp:120] Setting up norm2
I0110 18:56:45.705394 251604 net.cpp:127] Top shape: 8 32 8 8 (16384)
I0110 18:56:45.705399 251604 layer_factory.hpp:74] Creating layer conv3
I0110 18:56:45.705402 251604 net.cpp:91] Creating Layer conv3
I0110 18:56:45.705405 251604 net.cpp:394] conv3 <- norm2
I0110 18:56:45.705409 251604 net.cpp:352] conv3 -> conv3
I0110 18:56:45.705412 251604 net.cpp:120] Setting up conv3
I0110 18:56:45.706212 251203 net.cpp:127] Top shape: 8 64 8 8 (32768)
I0110 18:56:45.706228 251203 layer_factory.hpp:74] Creating layer relu3
I0110 18:56:45.706248 251203 net.cpp:91] Creating Layer relu3
I0110 18:56:45.706251 251203 net.cpp:394] relu3 <- conv3
I0110 18:56:45.706255 251203 net.cpp:341] relu3 -> conv3 (in-place)
I0110 18:56:45.706259 251203 net.cpp:120] Setting up relu3
I0110 18:56:45.706262 251203 net.cpp:127] Top shape: 8 64 8 8 (32768)
I0110 18:56:45.706266 251203 layer_factory.hpp:74] Creating layer pool3
I0110 18:56:45.706270 251203 net.cpp:91] Creating Layer pool3
I0110 18:56:45.706274 251203 net.cpp:394] pool3 <- conv3
I0110 18:56:45.706276 251203 net.cpp:352] pool3 -> pool3
I0110 18:56:45.706023 251273 net.cpp:127] Top shape: 8 64 8 8 (32768)
I0110 18:56:45.706037 251273 layer_factory.hpp:74] Creating layer relu3
I0110 18:56:45.706058 251273 net.cpp:91] Creating Layer relu3
I0110 18:56:45.706280 251203 net.cpp:120] Setting up pool3
I0110 18:56:45.706285 251203 net.cpp:127] Top shape: 8 64 4 4 (8192)
I0110 18:56:45.706292 251203 layer_factory.hpp:74] Creating layer ip1
I0110 18:56:45.706060 251273 net.cpp:394] relu3 <- conv3
I0110 18:56:45.706064 251273 net.cpp:341] relu3 -> conv3 (in-place)
I0110 18:56:45.706068 251273 net.cpp:120] Setting up relu3
I0110 18:56:45.706070 251273 net.cpp:127] Top shape: 8 64 8 8 (32768)
I0110 18:56:45.706074 251273 layer_factory.hpp:74] Creating layer pool3
I0110 18:56:45.706079 251273 net.cpp:91] Creating Layer pool3
I0110 18:56:45.706080 251273 net.cpp:394] pool3 <- conv3
I0110 18:56:45.706084 251273 net.cpp:352] pool3 -> pool3
I0110 18:56:45.706087 251273 net.cpp:120] Setting up pool3
I0110 18:56:45.706297 251203 net.cpp:91] Creating Layer ip1
I0110 18:56:45.706300 251203 net.cpp:394] ip1 <- pool3
I0110 18:56:45.706305 251203 net.cpp:352] ip1 -> ip1
I0110 18:56:45.706091 251273 net.cpp:127] Top shape: 8 64 4 4 (8192)
I0110 18:56:45.706096 251273 layer_factory.hpp:74] Creating layer ip1
I0110 18:56:45.706101 251273 net.cpp:91] Creating Layer ip1
I0110 18:56:45.706670 251604 net.cpp:127] Top shape: 8 64 8 8 (32768)
I0110 18:56:45.706696 251604 layer_factory.hpp:74] Creating layer relu3
I0110 18:56:45.706706 251604 net.cpp:91] Creating Layer relu3
I0110 18:56:45.706645 251253 net.cpp:127] Top shape: 8 64 8 8 (32768)
I0110 18:56:45.706310 251203 net.cpp:120] Setting up ip1
I0110 18:56:45.706635 251529 net.cpp:127] Top shape: 8 64 8 8 (32768)
I0110 18:56:45.706663 251529 layer_factory.hpp:74] Creating layer relu3
I0110 18:56:45.706670 251529 net.cpp:91] Creating Layer relu3
I0110 18:56:45.706672 251529 net.cpp:394] relu3 <- conv3
I0110 18:56:45.704226 251415 net.cpp:127] Top shape: 8 64 8 8 (32768)
I0110 18:56:45.704254 251415 layer_factory.hpp:74] Creating layer relu3
I0110 18:56:45.704260 251415 net.cpp:91] Creating Layer relu3
I0110 18:56:45.704263 251415 net.cpp:394] relu3 <- conv3
I0110 18:56:45.706104 251273 net.cpp:394] ip1 <- pool3
I0110 18:56:45.706110 251273 net.cpp:352] ip1 -> ip1
I0110 18:56:45.706113 251273 net.cpp:120] Setting up ip1
I0110 18:56:45.706708 251604 net.cpp:394] relu3 <- conv3
I0110 18:56:45.706712 251604 net.cpp:341] relu3 -> conv3 (in-place)
I0110 18:56:45.706717 251604 net.cpp:120] Setting up relu3
I0110 18:56:45.706719 251604 net.cpp:127] Top shape: 8 64 8 8 (32768)
I0110 18:56:45.706722 251604 layer_factory.hpp:74] Creating layer pool3
I0110 18:56:45.706727 251604 net.cpp:91] Creating Layer pool3
I0110 18:56:45.706732 251604 net.cpp:394] pool3 <- conv3
I0110 18:56:45.706734 251604 net.cpp:352] pool3 -> pool3
I0110 18:56:45.706665 251253 layer_factory.hpp:74] Creating layer relu3
I0110 18:56:45.706670 251253 net.cpp:91] Creating Layer relu3
I0110 18:56:45.706673 251253 net.cpp:394] relu3 <- conv3
I0110 18:56:45.706677 251253 net.cpp:341] relu3 -> conv3 (in-place)
I0110 18:56:45.706681 251253 net.cpp:120] Setting up relu3
I0110 18:56:45.706684 251253 net.cpp:127] Top shape: 8 64 8 8 (32768)
I0110 18:56:45.706687 251253 layer_factory.hpp:74] Creating layer pool3
I0110 18:56:45.706693 251253 net.cpp:91] Creating Layer pool3
I0110 18:56:45.706676 251529 net.cpp:341] relu3 -> conv3 (in-place)
I0110 18:56:45.706682 251529 net.cpp:120] Setting up relu3
I0110 18:56:45.706686 251529 net.cpp:127] Top shape: 8 64 8 8 (32768)
I0110 18:56:45.706688 251529 layer_factory.hpp:74] Creating layer pool3
I0110 18:56:45.706692 251529 net.cpp:91] Creating Layer pool3
I0110 18:56:45.706696 251529 net.cpp:394] pool3 <- conv3
I0110 18:56:45.706698 251529 net.cpp:352] pool3 -> pool3
I0110 18:56:45.706702 251529 net.cpp:120] Setting up pool3
I0110 18:56:45.704267 251415 net.cpp:341] relu3 -> conv3 (in-place)
I0110 18:56:45.704272 251415 net.cpp:120] Setting up relu3
I0110 18:56:45.704274 251415 net.cpp:127] Top shape: 8 64 8 8 (32768)
I0110 18:56:45.704277 251415 layer_factory.hpp:74] Creating layer pool3
I0110 18:56:45.704282 251415 net.cpp:91] Creating Layer pool3
I0110 18:56:45.704283 251415 net.cpp:394] pool3 <- conv3
I0110 18:56:45.704288 251415 net.cpp:352] pool3 -> pool3
I0110 18:56:45.706738 251604 net.cpp:120] Setting up pool3
I0110 18:56:45.706743 251604 net.cpp:127] Top shape: 8 64 4 4 (8192)
I0110 18:56:45.706745 251604 layer_factory.hpp:74] Creating layer ip1
I0110 18:56:45.706750 251604 net.cpp:91] Creating Layer ip1
I0110 18:56:45.706696 251253 net.cpp:394] pool3 <- conv3
I0110 18:56:45.706699 251253 net.cpp:352] pool3 -> pool3
I0110 18:56:45.706703 251253 net.cpp:120] Setting up pool3
I0110 18:56:45.706707 251253 net.cpp:127] Top shape: 8 64 4 4 (8192)
I0110 18:56:45.706706 251529 net.cpp:127] Top shape: 8 64 4 4 (8192)
I0110 18:56:45.706709 251529 layer_factory.hpp:74] Creating layer ip1
I0110 18:56:45.706713 251529 net.cpp:91] Creating Layer ip1
I0110 18:56:45.706717 251529 net.cpp:394] ip1 <- pool3
I0110 18:56:45.704293 251415 net.cpp:120] Setting up pool3
I0110 18:56:45.704296 251415 net.cpp:127] Top shape: 8 64 4 4 (8192)
I0110 18:56:45.704299 251415 layer_factory.hpp:74] Creating layer ip1
I0110 18:56:45.704304 251415 net.cpp:91] Creating Layer ip1
I0110 18:56:45.706753 251604 net.cpp:394] ip1 <- pool3
I0110 18:56:45.706758 251604 net.cpp:352] ip1 -> ip1
I0110 18:56:45.706763 251604 net.cpp:120] Setting up ip1
I0110 18:56:45.706710 251253 layer_factory.hpp:74] Creating layer ip1
I0110 18:56:45.706715 251253 net.cpp:91] Creating Layer ip1
I0110 18:56:45.706718 251253 net.cpp:394] ip1 <- pool3
I0110 18:56:45.706722 251529 net.cpp:352] ip1 -> ip1
I0110 18:56:45.706727 251529 net.cpp:120] Setting up ip1
I0110 18:56:45.704306 251415 net.cpp:394] ip1 <- pool3
I0110 18:56:45.704313 251415 net.cpp:352] ip1 -> ip1
I0110 18:56:45.704316 251415 net.cpp:120] Setting up ip1
I0110 18:56:45.706723 251253 net.cpp:352] ip1 -> ip1
I0110 18:56:45.706728 251253 net.cpp:120] Setting up ip1
I0110 18:56:45.707056 251529 net.cpp:127] Top shape: 8 10 (80)
I0110 18:56:45.707070 251529 layer_factory.hpp:74] Creating layer ip1_ip1_0_split
I0110 18:56:45.707077 251529 net.cpp:91] Creating Layer ip1_ip1_0_split
I0110 18:56:45.707078 251529 net.cpp:394] ip1_ip1_0_split <- ip1
I0110 18:56:45.707084 251529 net.cpp:352] ip1_ip1_0_split -> ip1_ip1_0_split_0
I0110 18:56:45.707089 251529 net.cpp:352] ip1_ip1_0_split -> ip1_ip1_0_split_1
I0110 18:56:45.707093 251529 net.cpp:120] Setting up ip1_ip1_0_split
I0110 18:56:45.707105 251604 net.cpp:127] Top shape: 8 10 (80)
I0110 18:56:45.706722 251203 net.cpp:127] Top shape: 8 10 (80)
I0110 18:56:45.706737 251203 layer_factory.hpp:74] Creating layer ip1_ip1_0_split
I0110 18:56:45.706754 251203 net.cpp:91] Creating Layer ip1_ip1_0_split
I0110 18:56:45.706758 251203 net.cpp:394] ip1_ip1_0_split <- ip1
I0110 18:56:45.706761 251203 net.cpp:352] ip1_ip1_0_split -> ip1_ip1_0_split_0
I0110 18:56:45.707098 251529 net.cpp:127] Top shape: 8 10 (80)
I0110 18:56:45.707100 251529 net.cpp:127] Top shape: 8 10 (80)
I0110 18:56:45.707103 251529 layer_factory.hpp:74] Creating layer accuracy
I0110 18:56:45.707109 251529 net.cpp:91] Creating Layer accuracy
I0110 18:56:45.707113 251529 net.cpp:394] accuracy <- ip1_ip1_0_split_0
I0110 18:56:45.707125 251529 net.cpp:394] accuracy <- label_cifar_1_split_0
I0110 18:56:45.707119 251604 layer_factory.hpp:74] Creating layer ip1_ip1_0_split
I0110 18:56:45.707124 251604 net.cpp:91] Creating Layer ip1_ip1_0_split
I0110 18:56:45.707126 251604 net.cpp:394] ip1_ip1_0_split <- ip1
I0110 18:56:45.707130 251604 net.cpp:352] ip1_ip1_0_split -> ip1_ip1_0_split_0
I0110 18:56:45.706768 251203 net.cpp:352] ip1_ip1_0_split -> ip1_ip1_0_split_1
I0110 18:56:45.706773 251203 net.cpp:120] Setting up ip1_ip1_0_split
I0110 18:56:45.706778 251203 net.cpp:127] Top shape: 8 10 (80)
I0110 18:56:45.706781 251203 net.cpp:127] Top shape: 8 10 (80)
I0110 18:56:45.706784 251203 layer_factory.hpp:74] Creating layer accuracy
I0110 18:56:45.706789 251203 net.cpp:91] Creating Layer accuracy
I0110 18:56:45.707129 251529 net.cpp:352] accuracy -> accuracy
I0110 18:56:45.707134 251529 net.cpp:120] Setting up accuracy
I0110 18:56:45.707136 251529 net.cpp:127] Top shape: (1)
I0110 18:56:45.707140 251529 layer_factory.hpp:74] Creating layer loss
I0110 18:56:45.706540 251273 net.cpp:127] Top shape: 8 10 (80)
I0110 18:56:45.706554 251273 layer_factory.hpp:74] Creating layer ip1_ip1_0_split
I0110 18:56:45.706570 251273 net.cpp:91] Creating Layer ip1_ip1_0_split
I0110 18:56:45.706573 251273 net.cpp:394] ip1_ip1_0_split <- ip1
I0110 18:56:45.706578 251273 net.cpp:352] ip1_ip1_0_split -> ip1_ip1_0_split_0
I0110 18:56:45.707137 251604 net.cpp:352] ip1_ip1_0_split -> ip1_ip1_0_split_1
I0110 18:56:45.707141 251604 net.cpp:120] Setting up ip1_ip1_0_split
I0110 18:56:45.707144 251604 net.cpp:127] Top shape: 8 10 (80)
I0110 18:56:45.707147 251604 net.cpp:127] Top shape: 8 10 (80)
I0110 18:56:45.707082 251253 net.cpp:127] Top shape: 8 10 (80)
I0110 18:56:45.707095 251253 layer_factory.hpp:74] Creating layer ip1_ip1_0_split
I0110 18:56:45.707113 251253 net.cpp:91] Creating Layer ip1_ip1_0_split
I0110 18:56:45.707114 251253 net.cpp:394] ip1_ip1_0_split <- ip1
I0110 18:56:45.706790 251203 net.cpp:394] accuracy <- ip1_ip1_0_split_0
I0110 18:56:45.706804 251203 net.cpp:394] accuracy <- label_cifar_1_split_0
I0110 18:56:45.707145 251529 net.cpp:91] Creating Layer loss
I0110 18:56:45.707147 251529 net.cpp:394] loss <- ip1_ip1_0_split_1
I0110 18:56:45.707150 251529 net.cpp:394] loss <- label_cifar_1_split_1
I0110 18:56:45.704646 251415 net.cpp:127] Top shape: 8 10 (80)
I0110 18:56:45.704660 251415 layer_factory.hpp:74] Creating layer ip1_ip1_0_split
I0110 18:56:45.704677 251415 net.cpp:91] Creating Layer ip1_ip1_0_split
I0110 18:56:45.704680 251415 net.cpp:394] ip1_ip1_0_split <- ip1
I0110 18:56:45.706584 251273 net.cpp:352] ip1_ip1_0_split -> ip1_ip1_0_split_1
I0110 18:56:45.706588 251273 net.cpp:120] Setting up ip1_ip1_0_split
I0110 18:56:45.706591 251273 net.cpp:127] Top shape: 8 10 (80)
I0110 18:56:45.706594 251273 net.cpp:127] Top shape: 8 10 (80)
I0110 18:56:45.706598 251273 layer_factory.hpp:74] Creating layer accuracy
I0110 18:56:45.706601 251273 net.cpp:91] Creating Layer accuracy
I0110 18:56:45.707150 251604 layer_factory.hpp:74] Creating layer accuracy
I0110 18:56:45.707154 251604 net.cpp:91] Creating Layer accuracy
I0110 18:56:45.707120 251253 net.cpp:352] ip1_ip1_0_split -> ip1_ip1_0_split_0
I0110 18:56:45.707137 251253 net.cpp:352] ip1_ip1_0_split -> ip1_ip1_0_split_1
I0110 18:56:45.707140 251253 net.cpp:120] Setting up ip1_ip1_0_split
I0110 18:56:45.707144 251253 net.cpp:127] Top shape: 8 10 (80)
I0110 18:56:45.707147 251253 net.cpp:127] Top shape: 8 10 (80)
I0110 18:56:45.707150 251253 layer_factory.hpp:74] Creating layer accuracy
I0110 18:56:45.707154 251253 net.cpp:91] Creating Layer accuracy
I0110 18:56:45.706809 251203 net.cpp:352] accuracy -> accuracy
I0110 18:56:45.706812 251203 net.cpp:120] Setting up accuracy
I0110 18:56:45.706816 251203 net.cpp:127] Top shape: (1)
I0110 18:56:45.707155 251529 net.cpp:352] loss -> loss
I0110 18:56:45.707160 251529 net.cpp:120] Setting up loss
I0110 18:56:45.707165 251529 layer_factory.hpp:74] Creating layer loss
I0110 18:56:45.704686 251415 net.cpp:352] ip1_ip1_0_split -> ip1_ip1_0_split_0
I0110 18:56:45.704691 251415 net.cpp:352] ip1_ip1_0_split -> ip1_ip1_0_split_1
I0110 18:56:45.704695 251415 net.cpp:120] Setting up ip1_ip1_0_split
I0110 18:56:45.704699 251415 net.cpp:127] Top shape: 8 10 (80)
I0110 18:56:45.704702 251415 net.cpp:127] Top shape: 8 10 (80)
I0110 18:56:45.704705 251415 layer_factory.hpp:74] Creating layer accuracy
I0110 18:56:45.704710 251415 net.cpp:91] Creating Layer accuracy
I0110 18:56:45.706604 251273 net.cpp:394] accuracy <- ip1_ip1_0_split_0
I0110 18:56:45.706617 251273 net.cpp:394] accuracy <- label_cifar_1_split_0
I0110 18:56:45.707157 251604 net.cpp:394] accuracy <- ip1_ip1_0_split_0
I0110 18:56:45.707170 251604 net.cpp:394] accuracy <- label_cifar_1_split_0
…
